{"format": "graph-model", "generatedBy": "2.7.0", "convertedBy": "TensorFlow.js Converter v3.11.0", "signature": {"inputs": {"g5:0": {"name": "g5:0", "dtype": "DT_STRING", "tensorShape": {"dim": [{"size": "-1"}, {"size": "1"}]}}, "to_a6:0": {"name": "to_a6:0", "dtype": "DT_DOUBLE", "tensorShape": {"dim": [{"size": "-1"}, {"size": "1"}]}}, "from_b7:0": {"name": "from_b7:0", "dtype": "DT_DOUBLE", "tensorShape": {"dim": [{"size": "-1"}, {"size": "1"}]}}, "from_e1:0": {"name": "from_e1:0", "dtype": "DT_DOUBLE", "tensorShape": {"dim": [{"size": "-1"}, {"size": "1"}]}}, "to_b3:0": {"name": "to_b3:0", "dtype": "DT_DOUBLE", "tensorShape": {"dim": [{"size": "-1"}, {"size": "1"}]}}, "d3:0": {"name": "d3:0", "dtype": "DT_STRING", "tensorShape": {"dim": [{"size": "-1"}, {"size": "1"}]}}, "b3:0": {"name": "b3:0", "dtype": "DT_STRING", "tensorShape": {"dim": [{"size": "-1"}, {"size": "1"}]}}, "to_c6:0": {"name": "to_c6:0", "dtype": "DT_DOUBLE", "tensorShape": {"dim": [{"size": "-1"}, {"size": "1"}]}}, "e1:0": {"name": "e1:0", "dtype": "DT_STRING", "tensorShape": {"dim": [{"size": "-1"}, {"size": "1"}]}}, "from_d7:0": {"name": "from_d7:0", "dtype": "DT_DOUBLE", "tensorShape": {"dim": [{"size": "-1"}, {"size": "1"}]}}, "from_a4:0": {"name": "from_a4:0", "dtype": "DT_DOUBLE", "tensorShape": {"dim": [{"size": "-1"}, {"size": "1"}]}}, "c8:0": {"name": "c8:0", "dtype": "DT_STRING", "tensorShape": {"dim": [{"size": "-1"}, {"size": "1"}]}}, "d8:0": {"name": "d8:0", "dtype": "DT_STRING", "tensorShape": {"dim": [{"size": "-1"}, {"size": "1"}]}}, "to_f2:0": {"name": "to_f2:0", "dtype": "DT_DOUBLE", "tensorShape": {"dim": [{"size": "-1"}, {"size": "1"}]}}, "from_d2:0": {"name": "from_d2:0", "dtype": "DT_DOUBLE", "tensorShape": {"dim": [{"size": "-1"}, {"size": "1"}]}}, "to_b6:0": {"name": "to_b6:0", "dtype": "DT_DOUBLE", "tensorShape": {"dim": [{"size": "-1"}, {"size": "1"}]}}, "from_g4:0": {"name": "from_g4:0", "dtype": "DT_DOUBLE", "tensorShape": {"dim": [{"size": "-1"}, {"size": "1"}]}}, "g4:0": {"name": "g4:0", "dtype": "DT_STRING", "tensorShape": {"dim": [{"size": "-1"}, {"size": "1"}]}}, "from_g8:0": {"name": "from_g8:0", "dtype": "DT_DOUBLE", "tensorShape": {"dim": [{"size": "-1"}, {"size": "1"}]}}, "to_c1:0": {"name": "to_c1:0", "dtype": "DT_DOUBLE", "tensorShape": {"dim": [{"size": "-1"}, {"size": "1"}]}}, "from_a6:0": {"name": "from_a6:0", "dtype": "DT_DOUBLE", "tensorShape": {"dim": [{"size": "-1"}, {"size": "1"}]}}, "from_c6:0": {"name": "from_c6:0", "dtype": "DT_DOUBLE", "tensorShape": {"dim": [{"size": "-1"}, {"size": "1"}]}}, "d6:0": {"name": "d6:0", "dtype": "DT_STRING", "tensorShape": {"dim": [{"size": "-1"}, {"size": "1"}]}}, "c4:0": {"name": "c4:0", "dtype": "DT_STRING", "tensorShape": {"dim": [{"size": "-1"}, {"size": "1"}]}}, "from_g3:0": {"name": "from_g3:0", "dtype": "DT_DOUBLE", "tensorShape": {"dim": [{"size": "-1"}, {"size": "1"}]}}, "to_g3:0": {"name": "to_g3:0", "dtype": "DT_DOUBLE", "tensorShape": {"dim": [{"size": "-1"}, {"size": "1"}]}}, "g3:0": {"name": "g3:0", "dtype": "DT_STRING", "tensorShape": {"dim": [{"size": "-1"}, {"size": "1"}]}}, "from_g1:0": {"name": "from_g1:0", "dtype": "DT_DOUBLE", "tensorShape": {"dim": [{"size": "-1"}, {"size": "1"}]}}, "b1:0": {"name": "b1:0", "dtype": "DT_STRING", "tensorShape": {"dim": [{"size": "-1"}, {"size": "1"}]}}, "d1:0": {"name": "d1:0", "dtype": "DT_STRING", "tensorShape": {"dim": [{"size": "-1"}, {"size": "1"}]}}, "from_b8:0": {"name": "from_b8:0", "dtype": "DT_DOUBLE", "tensorShape": {"dim": [{"size": "-1"}, {"size": "1"}]}}, "e3:0": {"name": "e3:0", "dtype": "DT_STRING", "tensorShape": {"dim": [{"size": "-1"}, {"size": "1"}]}}, "to_b8:0": {"name": "to_b8:0", "dtype": "DT_DOUBLE", "tensorShape": {"dim": [{"size": "-1"}, {"size": "1"}]}}, "to_a8:0": {"name": "to_a8:0", "dtype": "DT_DOUBLE", "tensorShape": {"dim": [{"size": "-1"}, {"size": "1"}]}}, "from_h1:0": {"name": "from_h1:0", "dtype": "DT_DOUBLE", "tensorShape": {"dim": [{"size": "-1"}, {"size": "1"}]}}, "to_d6:0": {"name": "to_d6:0", "dtype": "DT_DOUBLE", "tensorShape": {"dim": [{"size": "-1"}, {"size": "1"}]}}, "from_f4:0": {"name": "from_f4:0", "dtype": "DT_DOUBLE", "tensorShape": {"dim": [{"size": "-1"}, {"size": "1"}]}}, "from_f1:0": {"name": "from_f1:0", "dtype": "DT_DOUBLE", "tensorShape": {"dim": [{"size": "-1"}, {"size": "1"}]}}, "from_e4:0": {"name": "from_e4:0", "dtype": "DT_DOUBLE", "tensorShape": {"dim": [{"size": "-1"}, {"size": "1"}]}}, "e4:0": {"name": "e4:0", "dtype": "DT_STRING", "tensorShape": {"dim": [{"size": "-1"}, {"size": "1"}]}}, "f5:0": {"name": "f5:0", "dtype": "DT_STRING", "tensorShape": {"dim": [{"size": "-1"}, {"size": "1"}]}}, "from_f8:0": {"name": "from_f8:0", "dtype": "DT_DOUBLE", "tensorShape": {"dim": [{"size": "-1"}, {"size": "1"}]}}, "to_g4:0": {"name": "to_g4:0", "dtype": "DT_DOUBLE", "tensorShape": {"dim": [{"size": "-1"}, {"size": "1"}]}}, "a3:0": {"name": "a3:0", "dtype": "DT_STRING", "tensorShape": {"dim": [{"size": "-1"}, {"size": "1"}]}}, "from_d3:0": {"name": "from_d3:0", "dtype": "DT_DOUBLE", "tensorShape": {"dim": [{"size": "-1"}, {"size": "1"}]}}, "h3:0": {"name": "h3:0", "dtype": "DT_STRING", "tensorShape": {"dim": [{"size": "-1"}, {"size": "1"}]}}, "from_g6:0": {"name": "from_g6:0", "dtype": "DT_DOUBLE", "tensorShape": {"dim": [{"size": "-1"}, {"size": "1"}]}}, "to_a5:0": {"name": "to_a5:0", "dtype": "DT_DOUBLE", "tensorShape": {"dim": [{"size": "-1"}, {"size": "1"}]}}, "to_d3:0": {"name": "to_d3:0", "dtype": "DT_DOUBLE", "tensorShape": {"dim": [{"size": "-1"}, {"size": "1"}]}}, "h4:0": {"name": "h4:0", "dtype": "DT_STRING", "tensorShape": {"dim": [{"size": "-1"}, {"size": "1"}]}}, "to_e7:0": {"name": "to_e7:0", "dtype": "DT_DOUBLE", "tensorShape": {"dim": [{"size": "-1"}, {"size": "1"}]}}, "to_e5:0": {"name": "to_e5:0", "dtype": "DT_DOUBLE", "tensorShape": {"dim": [{"size": "-1"}, {"size": "1"}]}}, "h2:0": {"name": "h2:0", "dtype": "DT_STRING", "tensorShape": {"dim": [{"size": "-1"}, {"size": "1"}]}}, "to_d2:0": {"name": "to_d2:0", "dtype": "DT_DOUBLE", "tensorShape": {"dim": [{"size": "-1"}, {"size": "1"}]}}, "b4:0": {"name": "b4:0", "dtype": "DT_STRING", "tensorShape": {"dim": [{"size": "-1"}, {"size": "1"}]}}, "from_h2:0": {"name": "from_h2:0", "dtype": "DT_DOUBLE", "tensorShape": {"dim": [{"size": "-1"}, {"size": "1"}]}}, "to_f6:0": {"name": "to_f6:0", "dtype": "DT_DOUBLE", "tensorShape": {"dim": [{"size": "-1"}, {"size": "1"}]}}, "to_c7:0": {"name": "to_c7:0", "dtype": "DT_DOUBLE", "tensorShape": {"dim": [{"size": "-1"}, {"size": "1"}]}}, "from_a1:0": {"name": "from_a1:0", "dtype": "DT_DOUBLE", "tensorShape": {"dim": [{"size": "-1"}, {"size": "1"}]}}, "from_h4:0": {"name": "from_h4:0", "dtype": "DT_DOUBLE", "tensorShape": {"dim": [{"size": "-1"}, {"size": "1"}]}}, "to_e8:0": {"name": "to_e8:0", "dtype": "DT_DOUBLE", "tensorShape": {"dim": [{"size": "-1"}, {"size": "1"}]}}, "to_g8:0": {"name": "to_g8:0", "dtype": "DT_DOUBLE", "tensorShape": {"dim": [{"size": "-1"}, {"size": "1"}]}}, "from_c8:0": {"name": "from_c8:0", "dtype": "DT_DOUBLE", "tensorShape": {"dim": [{"size": "-1"}, {"size": "1"}]}}, "to_c8:0": {"name": "to_c8:0", "dtype": "DT_DOUBLE", "tensorShape": {"dim": [{"size": "-1"}, {"size": "1"}]}}, "to_c3:0": {"name": "to_c3:0", "dtype": "DT_DOUBLE", "tensorShape": {"dim": [{"size": "-1"}, {"size": "1"}]}}, "from_b5:0": {"name": "from_b5:0", "dtype": "DT_DOUBLE", "tensorShape": {"dim": [{"size": "-1"}, {"size": "1"}]}}, "to_f1:0": {"name": "to_f1:0", "dtype": "DT_DOUBLE", "tensorShape": {"dim": [{"size": "-1"}, {"size": "1"}]}}, "to_b7:0": {"name": "to_b7:0", "dtype": "DT_DOUBLE", "tensorShape": {"dim": [{"size": "-1"}, {"size": "1"}]}}, "c7:0": {"name": "c7:0", "dtype": "DT_STRING", "tensorShape": {"dim": [{"size": "-1"}, {"size": "1"}]}}, "from_b6:0": {"name": "from_b6:0", "dtype": "DT_DOUBLE", "tensorShape": {"dim": [{"size": "-1"}, {"size": "1"}]}}, "a2:0": {"name": "a2:0", "dtype": "DT_STRING", "tensorShape": {"dim": [{"size": "-1"}, {"size": "1"}]}}, "to_b1:0": {"name": "to_b1:0", "dtype": "DT_DOUBLE", "tensorShape": {"dim": [{"size": "-1"}, {"size": "1"}]}}, "h6:0": {"name": "h6:0", "dtype": "DT_STRING", "tensorShape": {"dim": [{"size": "-1"}, {"size": "1"}]}}, "to_f7:0": {"name": "to_f7:0", "dtype": "DT_DOUBLE", "tensorShape": {"dim": [{"size": "-1"}, {"size": "1"}]}}, "to_g2:0": {"name": "to_g2:0", "dtype": "DT_DOUBLE", "tensorShape": {"dim": [{"size": "-1"}, {"size": "1"}]}}, "b5:0": {"name": "b5:0", "dtype": "DT_STRING", "tensorShape": {"dim": [{"size": "-1"}, {"size": "1"}]}}, "from_d1:0": {"name": "from_d1:0", "dtype": "DT_DOUBLE", "tensorShape": {"dim": [{"size": "-1"}, {"size": "1"}]}}, "to_h5:0": {"name": "to_h5:0", "dtype": "DT_DOUBLE", "tensorShape": {"dim": [{"size": "-1"}, {"size": "1"}]}}, "from_h5:0": {"name": "from_h5:0", "dtype": "DT_DOUBLE", "tensorShape": {"dim": [{"size": "-1"}, {"size": "1"}]}}, "from_c4:0": {"name": "from_c4:0", "dtype": "DT_DOUBLE", "tensorShape": {"dim": [{"size": "-1"}, {"size": "1"}]}}, "from_d5:0": {"name": "from_d5:0", "dtype": "DT_DOUBLE", "tensorShape": {"dim": [{"size": "-1"}, {"size": "1"}]}}, "c5:0": {"name": "c5:0", "dtype": "DT_STRING", "tensorShape": {"dim": [{"size": "-1"}, {"size": "1"}]}}, "a8:0": {"name": "a8:0", "dtype": "DT_STRING", "tensorShape": {"dim": [{"size": "-1"}, {"size": "1"}]}}, "to_c4:0": {"name": "to_c4:0", "dtype": "DT_DOUBLE", "tensorShape": {"dim": [{"size": "-1"}, {"size": "1"}]}}, "f7:0": {"name": "f7:0", "dtype": "DT_STRING", "tensorShape": {"dim": [{"size": "-1"}, {"size": "1"}]}}, "to_f4:0": {"name": "to_f4:0", "dtype": "DT_DOUBLE", "tensorShape": {"dim": [{"size": "-1"}, {"size": "1"}]}}, "from_c3:0": {"name": "from_c3:0", "dtype": "DT_DOUBLE", "tensorShape": {"dim": [{"size": "-1"}, {"size": "1"}]}}, "from_e6:0": {"name": "from_e6:0", "dtype": "DT_DOUBLE", "tensorShape": {"dim": [{"size": "-1"}, {"size": "1"}]}}, "from_c5:0": {"name": "from_c5:0", "dtype": "DT_DOUBLE", "tensorShape": {"dim": [{"size": "-1"}, {"size": "1"}]}}, "from_e7:0": {"name": "from_e7:0", "dtype": "DT_DOUBLE", "tensorShape": {"dim": [{"size": "-1"}, {"size": "1"}]}}, "to_h8:0": {"name": "to_h8:0", "dtype": "DT_DOUBLE", "tensorShape": {"dim": [{"size": "-1"}, {"size": "1"}]}}, "to_b5:0": {"name": "to_b5:0", "dtype": "DT_DOUBLE", "tensorShape": {"dim": [{"size": "-1"}, {"size": "1"}]}}, "to_h7:0": {"name": "to_h7:0", "dtype": "DT_DOUBLE", "tensorShape": {"dim": [{"size": "-1"}, {"size": "1"}]}}, "from_a8:0": {"name": "from_a8:0", "dtype": "DT_DOUBLE", "tensorShape": {"dim": [{"size": "-1"}, {"size": "1"}]}}, "to_h4:0": {"name": "to_h4:0", "dtype": "DT_DOUBLE", "tensorShape": {"dim": [{"size": "-1"}, {"size": "1"}]}}, "f2:0": {"name": "f2:0", "dtype": "DT_STRING", "tensorShape": {"dim": [{"size": "-1"}, {"size": "1"}]}}, "to_g6:0": {"name": "to_g6:0", "dtype": "DT_DOUBLE", "tensorShape": {"dim": [{"size": "-1"}, {"size": "1"}]}}, "to_h6:0": {"name": "to_h6:0", "dtype": "DT_DOUBLE", "tensorShape": {"dim": [{"size": "-1"}, {"size": "1"}]}}, "from_e5:0": {"name": "from_e5:0", "dtype": "DT_DOUBLE", "tensorShape": {"dim": [{"size": "-1"}, {"size": "1"}]}}, "c2:0": {"name": "c2:0", "dtype": "DT_STRING", "tensorShape": {"dim": [{"size": "-1"}, {"size": "1"}]}}, "to_f3:0": {"name": "to_f3:0", "dtype": "DT_DOUBLE", "tensorShape": {"dim": [{"size": "-1"}, {"size": "1"}]}}, "from_b1:0": {"name": "from_b1:0", "dtype": "DT_DOUBLE", "tensorShape": {"dim": [{"size": "-1"}, {"size": "1"}]}}, "from_h6:0": {"name": "from_h6:0", "dtype": "DT_DOUBLE", "tensorShape": {"dim": [{"size": "-1"}, {"size": "1"}]}}, "e6:0": {"name": "e6:0", "dtype": "DT_STRING", "tensorShape": {"dim": [{"size": "-1"}, {"size": "1"}]}}, "to_d7:0": {"name": "to_d7:0", "dtype": "DT_DOUBLE", "tensorShape": {"dim": [{"size": "-1"}, {"size": "1"}]}}, "a4:0": {"name": "a4:0", "dtype": "DT_STRING", "tensorShape": {"dim": [{"size": "-1"}, {"size": "1"}]}}, "g6:0": {"name": "g6:0", "dtype": "DT_STRING", "tensorShape": {"dim": [{"size": "-1"}, {"size": "1"}]}}, "to_e3:0": {"name": "to_e3:0", "dtype": "DT_DOUBLE", "tensorShape": {"dim": [{"size": "-1"}, {"size": "1"}]}}, "to_d5:0": {"name": "to_d5:0", "dtype": "DT_DOUBLE", "tensorShape": {"dim": [{"size": "-1"}, {"size": "1"}]}}, "c3:0": {"name": "c3:0", "dtype": "DT_STRING", "tensorShape": {"dim": [{"size": "-1"}, {"size": "1"}]}}, "c6:0": {"name": "c6:0", "dtype": "DT_STRING", "tensorShape": {"dim": [{"size": "-1"}, {"size": "1"}]}}, "f6:0": {"name": "f6:0", "dtype": "DT_STRING", "tensorShape": {"dim": [{"size": "-1"}, {"size": "1"}]}}, "e7:0": {"name": "e7:0", "dtype": "DT_STRING", "tensorShape": {"dim": [{"size": "-1"}, {"size": "1"}]}}, "from_g7:0": {"name": "from_g7:0", "dtype": "DT_DOUBLE", "tensorShape": {"dim": [{"size": "-1"}, {"size": "1"}]}}, "from_b2:0": {"name": "from_b2:0", "dtype": "DT_DOUBLE", "tensorShape": {"dim": [{"size": "-1"}, {"size": "1"}]}}, "to_d4:0": {"name": "to_d4:0", "dtype": "DT_DOUBLE", "tensorShape": {"dim": [{"size": "-1"}, {"size": "1"}]}}, "a1:0": {"name": "a1:0", "dtype": "DT_STRING", "tensorShape": {"dim": [{"size": "-1"}, {"size": "1"}]}}, "b7:0": {"name": "b7:0", "dtype": "DT_STRING", "tensorShape": {"dim": [{"size": "-1"}, {"size": "1"}]}}, "d5:0": {"name": "d5:0", "dtype": "DT_STRING", "tensorShape": {"dim": [{"size": "-1"}, {"size": "1"}]}}, "from_a2:0": {"name": "from_a2:0", "dtype": "DT_DOUBLE", "tensorShape": {"dim": [{"size": "-1"}, {"size": "1"}]}}, "e5:0": {"name": "e5:0", "dtype": "DT_STRING", "tensorShape": {"dim": [{"size": "-1"}, {"size": "1"}]}}, "to_h2:0": {"name": "to_h2:0", "dtype": "DT_DOUBLE", "tensorShape": {"dim": [{"size": "-1"}, {"size": "1"}]}}, "a7:0": {"name": "a7:0", "dtype": "DT_STRING", "tensorShape": {"dim": [{"size": "-1"}, {"size": "1"}]}}, "to_a4:0": {"name": "to_a4:0", "dtype": "DT_DOUBLE", "tensorShape": {"dim": [{"size": "-1"}, {"size": "1"}]}}, "a5:0": {"name": "a5:0", "dtype": "DT_STRING", "tensorShape": {"dim": [{"size": "-1"}, {"size": "1"}]}}, "e8:0": {"name": "e8:0", "dtype": "DT_STRING", "tensorShape": {"dim": [{"size": "-1"}, {"size": "1"}]}}, "f8:0": {"name": "f8:0", "dtype": "DT_STRING", "tensorShape": {"dim": [{"size": "-1"}, {"size": "1"}]}}, "to_d1:0": {"name": "to_d1:0", "dtype": "DT_DOUBLE", "tensorShape": {"dim": [{"size": "-1"}, {"size": "1"}]}}, "to_h1:0": {"name": "to_h1:0", "dtype": "DT_DOUBLE", "tensorShape": {"dim": [{"size": "-1"}, {"size": "1"}]}}, "to_g5:0": {"name": "to_g5:0", "dtype": "DT_DOUBLE", "tensorShape": {"dim": [{"size": "-1"}, {"size": "1"}]}}, "d2:0": {"name": "d2:0", "dtype": "DT_STRING", "tensorShape": {"dim": [{"size": "-1"}, {"size": "1"}]}}, "from_a7:0": {"name": "from_a7:0", "dtype": "DT_DOUBLE", "tensorShape": {"dim": [{"size": "-1"}, {"size": "1"}]}}, "from_f7:0": {"name": "from_f7:0", "dtype": "DT_DOUBLE", "tensorShape": {"dim": [{"size": "-1"}, {"size": "1"}]}}, "from_a3:0": {"name": "from_a3:0", "dtype": "DT_DOUBLE", "tensorShape": {"dim": [{"size": "-1"}, {"size": "1"}]}}, "to_e6:0": {"name": "to_e6:0", "dtype": "DT_DOUBLE", "tensorShape": {"dim": [{"size": "-1"}, {"size": "1"}]}}, "from_c2:0": {"name": "from_c2:0", "dtype": "DT_DOUBLE", "tensorShape": {"dim": [{"size": "-1"}, {"size": "1"}]}}, "from_h8:0": {"name": "from_h8:0", "dtype": "DT_DOUBLE", "tensorShape": {"dim": [{"size": "-1"}, {"size": "1"}]}}, "h5:0": {"name": "h5:0", "dtype": "DT_STRING", "tensorShape": {"dim": [{"size": "-1"}, {"size": "1"}]}}, "to_a2:0": {"name": "to_a2:0", "dtype": "DT_DOUBLE", "tensorShape": {"dim": [{"size": "-1"}, {"size": "1"}]}}, "b6:0": {"name": "b6:0", "dtype": "DT_STRING", "tensorShape": {"dim": [{"size": "-1"}, {"size": "1"}]}}, "colour_to_move:0": {"name": "colour_to_move:0", "dtype": "DT_DOUBLE", "tensorShape": {"dim": [{"size": "-1"}, {"size": "1"}]}}, "from_b4:0": {"name": "from_b4:0", "dtype": "DT_DOUBLE", "tensorShape": {"dim": [{"size": "-1"}, {"size": "1"}]}}, "g7:0": {"name": "g7:0", "dtype": "DT_STRING", "tensorShape": {"dim": [{"size": "-1"}, {"size": "1"}]}}, "to_f8:0": {"name": "to_f8:0", "dtype": "DT_DOUBLE", "tensorShape": {"dim": [{"size": "-1"}, {"size": "1"}]}}, "to_a3:0": {"name": "to_a3:0", "dtype": "DT_DOUBLE", "tensorShape": {"dim": [{"size": "-1"}, {"size": "1"}]}}, "from_g2:0": {"name": "from_g2:0", "dtype": "DT_DOUBLE", "tensorShape": {"dim": [{"size": "-1"}, {"size": "1"}]}}, "g2:0": {"name": "g2:0", "dtype": "DT_STRING", "tensorShape": {"dim": [{"size": "-1"}, {"size": "1"}]}}, "h7:0": {"name": "h7:0", "dtype": "DT_STRING", "tensorShape": {"dim": [{"size": "-1"}, {"size": "1"}]}}, "to_e4:0": {"name": "to_e4:0", "dtype": "DT_DOUBLE", "tensorShape": {"dim": [{"size": "-1"}, {"size": "1"}]}}, "to_a1:0": {"name": "to_a1:0", "dtype": "DT_DOUBLE", "tensorShape": {"dim": [{"size": "-1"}, {"size": "1"}]}}, "to_c5:0": {"name": "to_c5:0", "dtype": "DT_DOUBLE", "tensorShape": {"dim": [{"size": "-1"}, {"size": "1"}]}}, "to_e1:0": {"name": "to_e1:0", "dtype": "DT_DOUBLE", "tensorShape": {"dim": [{"size": "-1"}, {"size": "1"}]}}, "f4:0": {"name": "f4:0", "dtype": "DT_STRING", "tensorShape": {"dim": [{"size": "-1"}, {"size": "1"}]}}, "from_e3:0": {"name": "from_e3:0", "dtype": "DT_DOUBLE", "tensorShape": {"dim": [{"size": "-1"}, {"size": "1"}]}}, "from_g5:0": {"name": "from_g5:0", "dtype": "DT_DOUBLE", "tensorShape": {"dim": [{"size": "-1"}, {"size": "1"}]}}, "from_d8:0": {"name": "from_d8:0", "dtype": "DT_DOUBLE", "tensorShape": {"dim": [{"size": "-1"}, {"size": "1"}]}}, "from_c1:0": {"name": "from_c1:0", "dtype": "DT_DOUBLE", "tensorShape": {"dim": [{"size": "-1"}, {"size": "1"}]}}, "to_b4:0": {"name": "to_b4:0", "dtype": "DT_DOUBLE", "tensorShape": {"dim": [{"size": "-1"}, {"size": "1"}]}}, "to_h3:0": {"name": "to_h3:0", "dtype": "DT_DOUBLE", "tensorShape": {"dim": [{"size": "-1"}, {"size": "1"}]}}, "from_h3:0": {"name": "from_h3:0", "dtype": "DT_DOUBLE", "tensorShape": {"dim": [{"size": "-1"}, {"size": "1"}]}}, "from_e2:0": {"name": "from_e2:0", "dtype": "DT_DOUBLE", "tensorShape": {"dim": [{"size": "-1"}, {"size": "1"}]}}, "to_a7:0": {"name": "to_a7:0", "dtype": "DT_DOUBLE", "tensorShape": {"dim": [{"size": "-1"}, {"size": "1"}]}}, "from_c7:0": {"name": "from_c7:0", "dtype": "DT_DOUBLE", "tensorShape": {"dim": [{"size": "-1"}, {"size": "1"}]}}, "from_a5:0": {"name": "from_a5:0", "dtype": "DT_DOUBLE", "tensorShape": {"dim": [{"size": "-1"}, {"size": "1"}]}}, "to_c2:0": {"name": "to_c2:0", "dtype": "DT_DOUBLE", "tensorShape": {"dim": [{"size": "-1"}, {"size": "1"}]}}, "b8:0": {"name": "b8:0", "dtype": "DT_STRING", "tensorShape": {"dim": [{"size": "-1"}, {"size": "1"}]}}, "h8:0": {"name": "h8:0", "dtype": "DT_STRING", "tensorShape": {"dim": [{"size": "-1"}, {"size": "1"}]}}, "d7:0": {"name": "d7:0", "dtype": "DT_STRING", "tensorShape": {"dim": [{"size": "-1"}, {"size": "1"}]}}, "from_d6:0": {"name": "from_d6:0", "dtype": "DT_DOUBLE", "tensorShape": {"dim": [{"size": "-1"}, {"size": "1"}]}}, "to_g1:0": {"name": "to_g1:0", "dtype": "DT_DOUBLE", "tensorShape": {"dim": [{"size": "-1"}, {"size": "1"}]}}, "e2:0": {"name": "e2:0", "dtype": "DT_STRING", "tensorShape": {"dim": [{"size": "-1"}, {"size": "1"}]}}, "from_f3:0": {"name": "from_f3:0", "dtype": "DT_DOUBLE", "tensorShape": {"dim": [{"size": "-1"}, {"size": "1"}]}}, "b2:0": {"name": "b2:0", "dtype": "DT_STRING", "tensorShape": {"dim": [{"size": "-1"}, {"size": "1"}]}}, "a6:0": {"name": "a6:0", "dtype": "DT_STRING", "tensorShape": {"dim": [{"size": "-1"}, {"size": "1"}]}}, "to_f5:0": {"name": "to_f5:0", "dtype": "DT_DOUBLE", "tensorShape": {"dim": [{"size": "-1"}, {"size": "1"}]}}, "from_f6:0": {"name": "from_f6:0", "dtype": "DT_DOUBLE", "tensorShape": {"dim": [{"size": "-1"}, {"size": "1"}]}}, "to_g7:0": {"name": "to_g7:0", "dtype": "DT_DOUBLE", "tensorShape": {"dim": [{"size": "-1"}, {"size": "1"}]}}, "from_f5:0": {"name": "from_f5:0", "dtype": "DT_DOUBLE", "tensorShape": {"dim": [{"size": "-1"}, {"size": "1"}]}}, "g1:0": {"name": "g1:0", "dtype": "DT_STRING", "tensorShape": {"dim": [{"size": "-1"}, {"size": "1"}]}}, "from_d4:0": {"name": "from_d4:0", "dtype": "DT_DOUBLE", "tensorShape": {"dim": [{"size": "-1"}, {"size": "1"}]}}, "from_b3:0": {"name": "from_b3:0", "dtype": "DT_DOUBLE", "tensorShape": {"dim": [{"size": "-1"}, {"size": "1"}]}}, "h1:0": {"name": "h1:0", "dtype": "DT_STRING", "tensorShape": {"dim": [{"size": "-1"}, {"size": "1"}]}}, "d4:0": {"name": "d4:0", "dtype": "DT_STRING", "tensorShape": {"dim": [{"size": "-1"}, {"size": "1"}]}}, "from_f2:0": {"name": "from_f2:0", "dtype": "DT_DOUBLE", "tensorShape": {"dim": [{"size": "-1"}, {"size": "1"}]}}, "to_b2:0": {"name": "to_b2:0", "dtype": "DT_DOUBLE", "tensorShape": {"dim": [{"size": "-1"}, {"size": "1"}]}}, "to_e2:0": {"name": "to_e2:0", "dtype": "DT_DOUBLE", "tensorShape": {"dim": [{"size": "-1"}, {"size": "1"}]}}, "f3:0": {"name": "f3:0", "dtype": "DT_STRING", "tensorShape": {"dim": [{"size": "-1"}, {"size": "1"}]}}, "from_h7:0": {"name": "from_h7:0", "dtype": "DT_DOUBLE", "tensorShape": {"dim": [{"size": "-1"}, {"size": "1"}]}}, "f1:0": {"name": "f1:0", "dtype": "DT_STRING", "tensorShape": {"dim": [{"size": "-1"}, {"size": "1"}]}}, "to_d8:0": {"name": "to_d8:0", "dtype": "DT_DOUBLE", "tensorShape": {"dim": [{"size": "-1"}, {"size": "1"}]}}, "c1:0": {"name": "c1:0", "dtype": "DT_STRING", "tensorShape": {"dim": [{"size": "-1"}, {"size": "1"}]}}, "g8:0": {"name": "g8:0", "dtype": "DT_STRING", "tensorShape": {"dim": [{"size": "-1"}, {"size": "1"}]}}, "from_e8:0": {"name": "from_e8:0", "dtype": "DT_DOUBLE", "tensorShape": {"dim": [{"size": "-1"}, {"size": "1"}]}}}, "outputs": {"dense_3": {"name": "Identity:0", "dtype": "DT_FLOAT", "tensorShape": {"dim": [{"size": "-1"}, {"size": "1"}]}}}}, "modelTopology": {"node": [{"name": "unknown_0", "op": "Const", "attr": {"dtype": {"type": "DT_INT64"}, "value": {"tensor": {"dtype": "DT_INT64", "tensorShape": {}}}}}, {"name": "unknown_2", "op": "Const", "attr": {"dtype": {"type": "DT_INT64"}, "value": {"tensor": {"dtype": "DT_INT64", "tensorShape": {}}}}}, {"name": "unknown_4", "op": "Const", "attr": {"dtype": {"type": "DT_INT64"}, "value": {"tensor": {"dtype": "DT_INT64", "tensorShape": {}}}}}, {"name": "unknown_6", "op": "Const", "attr": {"dtype": {"type": "DT_INT64"}, "value": {"tensor": {"dtype": "DT_INT64", "tensorShape": {}}}}}, {"name": "unknown_8", "op": "Const", "attr": {"dtype": {"type": "DT_INT64"}, "value": {"tensor": {"dtype": "DT_INT64", "tensorShape": {}}}}}, {"name": "unknown_10", "op": "Const", "attr": {"dtype": {"type": "DT_INT64"}, "value": {"tensor": {"dtype": "DT_INT64", "tensorShape": {}}}}}, {"name": "unknown_12", "op": "Const", "attr": {"dtype": {"type": "DT_INT64"}, "value": {"tensor": {"dtype": "DT_INT64", "tensorShape": {}}}}}, {"name": "unknown_14", "op": "Const", "attr": {"dtype": {"type": "DT_INT64"}, "value": {"tensor": {"dtype": "DT_INT64", "tensorShape": {}}}}}, {"name": "unknown_16", "op": "Const", "attr": {"dtype": {"type": "DT_INT64"}, "value": {"tensor": {"dtype": "DT_INT64", "tensorShape": {}}}}}, {"name": "unknown_18", "op": "Const", "attr": {"value": {"tensor": {"dtype": "DT_INT64", "tensorShape": {}}}, "dtype": {"type": "DT_INT64"}}}, {"name": "unknown_20", "op": "Const", "attr": {"dtype": {"type": "DT_INT64"}, "value": {"tensor": {"dtype": "DT_INT64", "tensorShape": {}}}}}, {"name": "unknown_22", "op": "Const", "attr": {"value": {"tensor": {"dtype": "DT_INT64", "tensorShape": {}}}, "dtype": {"type": "DT_INT64"}}}, {"name": "unknown_24", "op": "Const", "attr": {"dtype": {"type": "DT_INT64"}, "value": {"tensor": {"dtype": "DT_INT64", "tensorShape": {}}}}}, {"name": "unknown_26", "op": "Const", "attr": {"dtype": {"type": "DT_INT64"}, "value": {"tensor": {"dtype": "DT_INT64", "tensorShape": {}}}}}, {"name": "unknown_28", "op": "Const", "attr": {"dtype": {"type": "DT_INT64"}, "value": {"tensor": {"dtype": "DT_INT64", "tensorShape": {}}}}}, {"name": "unknown_30", "op": "Const", "attr": {"dtype": {"type": "DT_INT64"}, "value": {"tensor": {"dtype": "DT_INT64", "tensorShape": {}}}}}, {"name": "unknown_32", "op": "Const", "attr": {"dtype": {"type": "DT_INT64"}, "value": {"tensor": {"dtype": "DT_INT64", "tensorShape": {}}}}}, {"name": "unknown_34", "op": "Const", "attr": {"dtype": {"type": "DT_INT64"}, "value": {"tensor": {"dtype": "DT_INT64", "tensorShape": {}}}}}, {"name": "unknown_36", "op": "Const", "attr": {"dtype": {"type": "DT_INT64"}, "value": {"tensor": {"dtype": "DT_INT64", "tensorShape": {}}}}}, {"name": "unknown_38", "op": "Const", "attr": {"dtype": {"type": "DT_INT64"}, "value": {"tensor": {"dtype": "DT_INT64", "tensorShape": {}}}}}, {"name": "unknown_40", "op": "Const", "attr": {"dtype": {"type": "DT_INT64"}, "value": {"tensor": {"dtype": "DT_INT64", "tensorShape": {}}}}}, {"name": "unknown_42", "op": "Const", "attr": {"dtype": {"type": "DT_INT64"}, "value": {"tensor": {"dtype": "DT_INT64", "tensorShape": {}}}}}, {"name": "unknown_44", "op": "Const", "attr": {"value": {"tensor": {"dtype": "DT_INT64", "tensorShape": {}}}, "dtype": {"type": "DT_INT64"}}}, {"name": "unknown_46", "op": "Const", "attr": {"value": {"tensor": {"dtype": "DT_INT64", "tensorShape": {}}}, "dtype": {"type": "DT_INT64"}}}, {"name": "unknown_48", "op": "Const", "attr": {"dtype": {"type": "DT_INT64"}, "value": {"tensor": {"dtype": "DT_INT64", "tensorShape": {}}}}}, {"name": "unknown_50", "op": "Const", "attr": {"value": {"tensor": {"dtype": "DT_INT64", "tensorShape": {}}}, "dtype": {"type": "DT_INT64"}}}, {"name": "unknown_52", "op": "Const", "attr": {"value": {"tensor": {"dtype": "DT_INT64", "tensorShape": {}}}, "dtype": {"type": "DT_INT64"}}}, {"name": "unknown_54", "op": "Const", "attr": {"dtype": {"type": "DT_INT64"}, "value": {"tensor": {"dtype": "DT_INT64", "tensorShape": {}}}}}, {"name": "unknown_56", "op": "Const", "attr": {"value": {"tensor": {"dtype": "DT_INT64", "tensorShape": {}}}, "dtype": {"type": "DT_INT64"}}}, {"name": "unknown_58", "op": "Const", "attr": {"value": {"tensor": {"dtype": "DT_INT64", "tensorShape": {}}}, "dtype": {"type": "DT_INT64"}}}, {"name": "unknown_60", "op": "Const", "attr": {"value": {"tensor": {"dtype": "DT_INT64", "tensorShape": {}}}, "dtype": {"type": "DT_INT64"}}}, {"name": "unknown_62", "op": "Const", "attr": {"value": {"tensor": {"dtype": "DT_INT64", "tensorShape": {}}}, "dtype": {"type": "DT_INT64"}}}, {"name": "unknown_64", "op": "Const", "attr": {"dtype": {"type": "DT_INT64"}, "value": {"tensor": {"dtype": "DT_INT64", "tensorShape": {}}}}}, {"name": "unknown_66", "op": "Const", "attr": {"value": {"tensor": {"dtype": "DT_INT64", "tensorShape": {}}}, "dtype": {"type": "DT_INT64"}}}, {"name": "unknown_68", "op": "Const", "attr": {"dtype": {"type": "DT_INT64"}, "value": {"tensor": {"dtype": "DT_INT64", "tensorShape": {}}}}}, {"name": "unknown_70", "op": "Const", "attr": {"dtype": {"type": "DT_INT64"}, "value": {"tensor": {"dtype": "DT_INT64", "tensorShape": {}}}}}, {"name": "unknown_72", "op": "Const", "attr": {"dtype": {"type": "DT_INT64"}, "value": {"tensor": {"dtype": "DT_INT64", "tensorShape": {}}}}}, {"name": "unknown_74", "op": "Const", "attr": {"value": {"tensor": {"dtype": "DT_INT64", "tensorShape": {}}}, "dtype": {"type": "DT_INT64"}}}, {"name": "unknown_76", "op": "Const", "attr": {"dtype": {"type": "DT_INT64"}, "value": {"tensor": {"dtype": "DT_INT64", "tensorShape": {}}}}}, {"name": "unknown_78", "op": "Const", "attr": {"value": {"tensor": {"dtype": "DT_INT64", "tensorShape": {}}}, "dtype": {"type": "DT_INT64"}}}, {"name": "unknown_80", "op": "Const", "attr": {"value": {"tensor": {"dtype": "DT_INT64", "tensorShape": {}}}, "dtype": {"type": "DT_INT64"}}}, {"name": "unknown_82", "op": "Const", "attr": {"dtype": {"type": "DT_INT64"}, "value": {"tensor": {"dtype": "DT_INT64", "tensorShape": {}}}}}, {"name": "unknown_84", "op": "Const", "attr": {"dtype": {"type": "DT_INT64"}, "value": {"tensor": {"dtype": "DT_INT64", "tensorShape": {}}}}}, {"name": "unknown_86", "op": "Const", "attr": {"value": {"tensor": {"dtype": "DT_INT64", "tensorShape": {}}}, "dtype": {"type": "DT_INT64"}}}, {"name": "unknown_88", "op": "Const", "attr": {"value": {"tensor": {"dtype": "DT_INT64", "tensorShape": {}}}, "dtype": {"type": "DT_INT64"}}}, {"name": "unknown_90", "op": "Const", "attr": {"value": {"tensor": {"dtype": "DT_INT64", "tensorShape": {}}}, "dtype": {"type": "DT_INT64"}}}, {"name": "unknown_92", "op": "Const", "attr": {"dtype": {"type": "DT_INT64"}, "value": {"tensor": {"dtype": "DT_INT64", "tensorShape": {}}}}}, {"name": "unknown_94", "op": "Const", "attr": {"dtype": {"type": "DT_INT64"}, "value": {"tensor": {"dtype": "DT_INT64", "tensorShape": {}}}}}, {"name": "unknown_96", "op": "Const", "attr": {"dtype": {"type": "DT_INT64"}, "value": {"tensor": {"dtype": "DT_INT64", "tensorShape": {}}}}}, {"name": "unknown_98", "op": "Const", "attr": {"dtype": {"type": "DT_INT64"}, "value": {"tensor": {"dtype": "DT_INT64", "tensorShape": {}}}}}, {"name": "unknown_100", "op": "Const", "attr": {"dtype": {"type": "DT_INT64"}, "value": {"tensor": {"dtype": "DT_INT64", "tensorShape": {}}}}}, {"name": "unknown_102", "op": "Const", "attr": {"value": {"tensor": {"dtype": "DT_INT64", "tensorShape": {}}}, "dtype": {"type": "DT_INT64"}}}, {"name": "unknown_104", "op": "Const", "attr": {"dtype": {"type": "DT_INT64"}, "value": {"tensor": {"dtype": "DT_INT64", "tensorShape": {}}}}}, {"name": "unknown_106", "op": "Const", "attr": {"value": {"tensor": {"dtype": "DT_INT64", "tensorShape": {}}}, "dtype": {"type": "DT_INT64"}}}, {"name": "unknown_108", "op": "Const", "attr": {"dtype": {"type": "DT_INT64"}, "value": {"tensor": {"dtype": "DT_INT64", "tensorShape": {}}}}}, {"name": "unknown_110", "op": "Const", "attr": {"dtype": {"type": "DT_INT64"}, "value": {"tensor": {"dtype": "DT_INT64", "tensorShape": {}}}}}, {"name": "unknown_112", "op": "Const", "attr": {"dtype": {"type": "DT_INT64"}, "value": {"tensor": {"dtype": "DT_INT64", "tensorShape": {}}}}}, {"name": "unknown_114", "op": "Const", "attr": {"value": {"tensor": {"dtype": "DT_INT64", "tensorShape": {}}}, "dtype": {"type": "DT_INT64"}}}, {"name": "unknown_116", "op": "Const", "attr": {"dtype": {"type": "DT_INT64"}, "value": {"tensor": {"dtype": "DT_INT64", "tensorShape": {}}}}}, {"name": "unknown_118", "op": "Const", "attr": {"value": {"tensor": {"dtype": "DT_INT64", "tensorShape": {}}}, "dtype": {"type": "DT_INT64"}}}, {"name": "unknown_120", "op": "Const", "attr": {"dtype": {"type": "DT_INT64"}, "value": {"tensor": {"dtype": "DT_INT64", "tensorShape": {}}}}}, {"name": "unknown_122", "op": "Const", "attr": {"value": {"tensor": {"dtype": "DT_INT64", "tensorShape": {}}}, "dtype": {"type": "DT_INT64"}}}, {"name": "unknown_124", "op": "Const", "attr": {"dtype": {"type": "DT_INT64"}, "value": {"tensor": {"dtype": "DT_INT64", "tensorShape": {}}}}}, {"name": "unknown_126", "op": "Const", "attr": {"dtype": {"type": "DT_INT64"}, "value": {"tensor": {"dtype": "DT_INT64", "tensorShape": {}}}}}, {"name": "unknown_128", "op": "Const", "attr": {"dtype": {"type": "DT_INT64"}, "value": {"tensor": {"dtype": "DT_INT64", "tensorShape": {}}}}}, {"name": "unknown_130", "op": "Const", "attr": {"dtype": {"type": "DT_INT64"}, "value": {"tensor": {"dtype": "DT_INT64", "tensorShape": {}}}}}, {"name": "unknown_132", "op": "Const", "attr": {"dtype": {"type": "DT_INT64"}, "value": {"tensor": {"dtype": "DT_INT64", "tensorShape": {}}}}}, {"name": "unknown_134", "op": "Const", "attr": {"value": {"tensor": {"dtype": "DT_INT64", "tensorShape": {}}}, "dtype": {"type": "DT_INT64"}}}, {"name": "unknown_136", "op": "Const", "attr": {"dtype": {"type": "DT_INT64"}, "value": {"tensor": {"dtype": "DT_INT64", "tensorShape": {}}}}}, {"name": "unknown_138", "op": "Const", "attr": {"dtype": {"type": "DT_INT64"}, "value": {"tensor": {"dtype": "DT_INT64", "tensorShape": {}}}}}, {"name": "unknown_140", "op": "Const", "attr": {"value": {"tensor": {"dtype": "DT_INT64", "tensorShape": {}}}, "dtype": {"type": "DT_INT64"}}}, {"name": "unknown_142", "op": "Const", "attr": {"dtype": {"type": "DT_INT64"}, "value": {"tensor": {"dtype": "DT_INT64", "tensorShape": {}}}}}, {"name": "unknown_144", "op": "Const", "attr": {"value": {"tensor": {"dtype": "DT_INT64", "tensorShape": {}}}, "dtype": {"type": "DT_INT64"}}}, {"name": "unknown_146", "op": "Const", "attr": {"dtype": {"type": "DT_INT64"}, "value": {"tensor": {"dtype": "DT_INT64", "tensorShape": {}}}}}, {"name": "unknown_148", "op": "Const", "attr": {"dtype": {"type": "DT_INT64"}, "value": {"tensor": {"dtype": "DT_INT64", "tensorShape": {}}}}}, {"name": "unknown_150", "op": "Const", "attr": {"value": {"tensor": {"dtype": "DT_INT64", "tensorShape": {}}}, "dtype": {"type": "DT_INT64"}}}, {"name": "unknown_152", "op": "Const", "attr": {"dtype": {"type": "DT_INT64"}, "value": {"tensor": {"dtype": "DT_INT64", "tensorShape": {}}}}}, {"name": "unknown_154", "op": "Const", "attr": {"dtype": {"type": "DT_INT64"}, "value": {"tensor": {"dtype": "DT_INT64", "tensorShape": {}}}}}, {"name": "unknown_156", "op": "Const", "attr": {"dtype": {"type": "DT_INT64"}, "value": {"tensor": {"dtype": "DT_INT64", "tensorShape": {}}}}}, {"name": "unknown_158", "op": "Const", "attr": {"dtype": {"type": "DT_INT64"}, "value": {"tensor": {"dtype": "DT_INT64", "tensorShape": {}}}}}, {"name": "unknown_160", "op": "Const", "attr": {"dtype": {"type": "DT_INT64"}, "value": {"tensor": {"dtype": "DT_INT64", "tensorShape": {}}}}}, {"name": "unknown_162", "op": "Const", "attr": {"value": {"tensor": {"dtype": "DT_INT64", "tensorShape": {}}}, "dtype": {"type": "DT_INT64"}}}, {"name": "unknown_164", "op": "Const", "attr": {"dtype": {"type": "DT_INT64"}, "value": {"tensor": {"dtype": "DT_INT64", "tensorShape": {}}}}}, {"name": "unknown_166", "op": "Const", "attr": {"value": {"tensor": {"dtype": "DT_INT64", "tensorShape": {}}}, "dtype": {"type": "DT_INT64"}}}, {"name": "unknown_168", "op": "Const", "attr": {"dtype": {"type": "DT_INT64"}, "value": {"tensor": {"dtype": "DT_INT64", "tensorShape": {}}}}}, {"name": "unknown_170", "op": "Const", "attr": {"value": {"tensor": {"dtype": "DT_INT64", "tensorShape": {}}}, "dtype": {"type": "DT_INT64"}}}, {"name": "unknown_172", "op": "Const", "attr": {"dtype": {"type": "DT_INT64"}, "value": {"tensor": {"dtype": "DT_INT64", "tensorShape": {}}}}}, {"name": "unknown_174", "op": "Const", "attr": {"value": {"tensor": {"dtype": "DT_INT64", "tensorShape": {}}}, "dtype": {"type": "DT_INT64"}}}, {"name": "unknown_176", "op": "Const", "attr": {"value": {"tensor": {"dtype": "DT_INT64", "tensorShape": {}}}, "dtype": {"type": "DT_INT64"}}}, {"name": "unknown_178", "op": "Const", "attr": {"dtype": {"type": "DT_INT64"}, "value": {"tensor": {"dtype": "DT_INT64", "tensorShape": {}}}}}, {"name": "unknown_180", "op": "Const", "attr": {"dtype": {"type": "DT_INT64"}, "value": {"tensor": {"dtype": "DT_INT64", "tensorShape": {}}}}}, {"name": "unknown_182", "op": "Const", "attr": {"value": {"tensor": {"dtype": "DT_INT64", "tensorShape": {}}}, "dtype": {"type": "DT_INT64"}}}, {"name": "unknown_184", "op": "Const", "attr": {"dtype": {"type": "DT_INT64"}, "value": {"tensor": {"dtype": "DT_INT64", "tensorShape": {}}}}}, {"name": "unknown_186", "op": "Const", "attr": {"value": {"tensor": {"dtype": "DT_INT64", "tensorShape": {}}}, "dtype": {"type": "DT_INT64"}}}, {"name": "unknown_188", "op": "Const", "attr": {"value": {"tensor": {"dtype": "DT_INT64", "tensorShape": {}}}, "dtype": {"type": "DT_INT64"}}}, {"name": "unknown_190", "op": "Const", "attr": {"dtype": {"type": "DT_INT64"}, "value": {"tensor": {"dtype": "DT_INT64", "tensorShape": {}}}}}, {"name": "unknown_192", "op": "Const", "attr": {"dtype": {"type": "DT_INT64"}, "value": {"tensor": {"dtype": "DT_INT64", "tensorShape": {}}}}}, {"name": "unknown_194", "op": "Const", "attr": {"dtype": {"type": "DT_INT64"}, "value": {"tensor": {"dtype": "DT_INT64", "tensorShape": {}}}}}, {"name": "unknown_196", "op": "Const", "attr": {"value": {"tensor": {"dtype": "DT_INT64", "tensorShape": {}}}, "dtype": {"type": "DT_INT64"}}}, {"name": "unknown_198", "op": "Const", "attr": {"dtype": {"type": "DT_INT64"}, "value": {"tensor": {"dtype": "DT_INT64", "tensorShape": {}}}}}, {"name": "unknown_200", "op": "Const", "attr": {"dtype": {"type": "DT_INT64"}, "value": {"tensor": {"dtype": "DT_INT64", "tensorShape": {}}}}}, {"name": "unknown_202", "op": "Const", "attr": {"value": {"tensor": {"dtype": "DT_INT64", "tensorShape": {}}}, "dtype": {"type": "DT_INT64"}}}, {"name": "unknown_204", "op": "Const", "attr": {"dtype": {"type": "DT_INT64"}, "value": {"tensor": {"dtype": "DT_INT64", "tensorShape": {}}}}}, {"name": "unknown_206", "op": "Const", "attr": {"dtype": {"type": "DT_INT64"}, "value": {"tensor": {"dtype": "DT_INT64", "tensorShape": {}}}}}, {"name": "unknown_208", "op": "Const", "attr": {"dtype": {"type": "DT_INT64"}, "value": {"tensor": {"dtype": "DT_INT64", "tensorShape": {}}}}}, {"name": "unknown_210", "op": "Const", "attr": {"dtype": {"type": "DT_INT64"}, "value": {"tensor": {"dtype": "DT_INT64", "tensorShape": {}}}}}, {"name": "unknown_212", "op": "Const", "attr": {"dtype": {"type": "DT_INT64"}, "value": {"tensor": {"dtype": "DT_INT64", "tensorShape": {}}}}}, {"name": "unknown_214", "op": "Const", "attr": {"value": {"tensor": {"dtype": "DT_INT64", "tensorShape": {}}}, "dtype": {"type": "DT_INT64"}}}, {"name": "unknown_216", "op": "Const", "attr": {"dtype": {"type": "DT_INT64"}, "value": {"tensor": {"dtype": "DT_INT64", "tensorShape": {}}}}}, {"name": "unknown_218", "op": "Const", "attr": {"value": {"tensor": {"dtype": "DT_INT64", "tensorShape": {}}}, "dtype": {"type": "DT_INT64"}}}, {"name": "unknown_220", "op": "Const", "attr": {"dtype": {"type": "DT_INT64"}, "value": {"tensor": {"dtype": "DT_INT64", "tensorShape": {}}}}}, {"name": "unknown_222", "op": "Const", "attr": {"dtype": {"type": "DT_INT64"}, "value": {"tensor": {"dtype": "DT_INT64", "tensorShape": {}}}}}, {"name": "unknown_224", "op": "Const", "attr": {"dtype": {"type": "DT_INT64"}, "value": {"tensor": {"dtype": "DT_INT64", "tensorShape": {}}}}}, {"name": "unknown_226", "op": "Const", "attr": {"value": {"tensor": {"dtype": "DT_INT64", "tensorShape": {}}}, "dtype": {"type": "DT_INT64"}}}, {"name": "unknown_228", "op": "Const", "attr": {"value": {"tensor": {"dtype": "DT_INT64", "tensorShape": {}}}, "dtype": {"type": "DT_INT64"}}}, {"name": "unknown_230", "op": "Const", "attr": {"value": {"tensor": {"dtype": "DT_INT64", "tensorShape": {}}}, "dtype": {"type": "DT_INT64"}}}, {"name": "unknown_232", "op": "Const", "attr": {"dtype": {"type": "DT_INT64"}, "value": {"tensor": {"dtype": "DT_INT64", "tensorShape": {}}}}}, {"name": "unknown_234", "op": "Const", "attr": {"value": {"tensor": {"dtype": "DT_INT64", "tensorShape": {}}}, "dtype": {"type": "DT_INT64"}}}, {"name": "unknown_236", "op": "Const", "attr": {"dtype": {"type": "DT_INT64"}, "value": {"tensor": {"dtype": "DT_INT64", "tensorShape": {}}}}}, {"name": "unknown_238", "op": "Const", "attr": {"value": {"tensor": {"dtype": "DT_INT64", "tensorShape": {}}}, "dtype": {"type": "DT_INT64"}}}, {"name": "unknown_240", "op": "Const", "attr": {"value": {"tensor": {"dtype": "DT_INT64", "tensorShape": {}}}, "dtype": {"type": "DT_INT64"}}}, {"name": "unknown_242", "op": "Const", "attr": {"dtype": {"type": "DT_INT64"}, "value": {"tensor": {"dtype": "DT_INT64", "tensorShape": {}}}}}, {"name": "unknown_244", "op": "Const", "attr": {"dtype": {"type": "DT_INT64"}, "value": {"tensor": {"dtype": "DT_INT64", "tensorShape": {}}}}}, {"name": "unknown_246", "op": "Const", "attr": {"value": {"tensor": {"dtype": "DT_INT64", "tensorShape": {}}}, "dtype": {"type": "DT_INT64"}}}, {"name": "unknown_248", "op": "Const", "attr": {"value": {"tensor": {"dtype": "DT_INT64", "tensorShape": {}}}, "dtype": {"type": "DT_INT64"}}}, {"name": "unknown_250", "op": "Const", "attr": {"value": {"tensor": {"dtype": "DT_INT64", "tensorShape": {}}}, "dtype": {"type": "DT_INT64"}}}, {"name": "unknown_252", "op": "Const", "attr": {"dtype": {"type": "DT_INT64"}, "value": {"tensor": {"dtype": "DT_INT64", "tensorShape": {}}}}}, {"name": "unknown_254", "op": "Const", "attr": {"value": {"tensor": {"dtype": "DT_INT64", "tensorShape": {}}}, "dtype": {"type": "DT_INT64"}}}, {"name": "unknown_256", "op": "Const", "attr": {"value": {"tensor": {"dtype": "DT_INT64", "tensorShape": {}}}, "dtype": {"type": "DT_INT64"}}}, {"name": "unknown_258", "op": "Const", "attr": {"value": {"tensor": {"dtype": "DT_INT64", "tensorShape": {}}}, "dtype": {"type": "DT_INT64"}}}, {"name": "unknown_260", "op": "Const", "attr": {"value": {"tensor": {"dtype": "DT_INT64", "tensorShape": {}}}, "dtype": {"type": "DT_INT64"}}}, {"name": "unknown_262", "op": "Const", "attr": {"value": {"tensor": {"dtype": "DT_INT64", "tensorShape": {}}}, "dtype": {"type": "DT_INT64"}}}, {"name": "unknown_264", "op": "Const", "attr": {"value": {"tensor": {"dtype": "DT_INT64", "tensorShape": {}}}, "dtype": {"type": "DT_INT64"}}}, {"name": "unknown_266", "op": "Const", "attr": {"value": {"tensor": {"dtype": "DT_INT64", "tensorShape": {}}}, "dtype": {"type": "DT_INT64"}}}, {"name": "unknown_268", "op": "Const", "attr": {"value": {"tensor": {"dtype": "DT_INT64", "tensorShape": {}}}, "dtype": {"type": "DT_INT64"}}}, {"name": "unknown_270", "op": "Const", "attr": {"value": {"tensor": {"dtype": "DT_INT64", "tensorShape": {}}}, "dtype": {"type": "DT_INT64"}}}, {"name": "unknown_272", "op": "Const", "attr": {"value": {"tensor": {"dtype": "DT_INT64", "tensorShape": {}}}, "dtype": {"type": "DT_INT64"}}}, {"name": "unknown_274", "op": "Const", "attr": {"dtype": {"type": "DT_INT64"}, "value": {"tensor": {"dtype": "DT_INT64", "tensorShape": {}}}}}, {"name": "unknown_276", "op": "Const", "attr": {"value": {"tensor": {"dtype": "DT_INT64", "tensorShape": {}}}, "dtype": {"type": "DT_INT64"}}}, {"name": "unknown_278", "op": "Const", "attr": {"value": {"tensor": {"dtype": "DT_INT64", "tensorShape": {}}}, "dtype": {"type": "DT_INT64"}}}, {"name": "unknown_280", "op": "Const", "attr": {"dtype": {"type": "DT_INT64"}, "value": {"tensor": {"dtype": "DT_INT64", "tensorShape": {}}}}}, {"name": "unknown_282", "op": "Const", "attr": {"value": {"tensor": {"dtype": "DT_INT64", "tensorShape": {}}}, "dtype": {"type": "DT_INT64"}}}, {"name": "unknown_284", "op": "Const", "attr": {"value": {"tensor": {"dtype": "DT_INT64", "tensorShape": {}}}, "dtype": {"type": "DT_INT64"}}}, {"name": "unknown_286", "op": "Const", "attr": {"value": {"tensor": {"dtype": "DT_INT64", "tensorShape": {}}}, "dtype": {"type": "DT_INT64"}}}, {"name": "unknown_288", "op": "Const", "attr": {"value": {"tensor": {"dtype": "DT_INT64", "tensorShape": {}}}, "dtype": {"type": "DT_INT64"}}}, {"name": "unknown_290", "op": "Const", "attr": {"value": {"tensor": {"dtype": "DT_INT64", "tensorShape": {}}}, "dtype": {"type": "DT_INT64"}}}, {"name": "unknown_292", "op": "Const", "attr": {"dtype": {"type": "DT_INT64"}, "value": {"tensor": {"dtype": "DT_INT64", "tensorShape": {}}}}}, {"name": "unknown_294", "op": "Const", "attr": {"value": {"tensor": {"dtype": "DT_INT64", "tensorShape": {}}}, "dtype": {"type": "DT_INT64"}}}, {"name": "unknown_296", "op": "Const", "attr": {"dtype": {"type": "DT_INT64"}, "value": {"tensor": {"dtype": "DT_INT64", "tensorShape": {}}}}}, {"name": "unknown_298", "op": "Const", "attr": {"value": {"tensor": {"dtype": "DT_INT64", "tensorShape": {}}}, "dtype": {"type": "DT_INT64"}}}, {"name": "unknown_300", "op": "Const", "attr": {"value": {"tensor": {"dtype": "DT_INT64", "tensorShape": {}}}, "dtype": {"type": "DT_INT64"}}}, {"name": "unknown_302", "op": "Const", "attr": {"value": {"tensor": {"dtype": "DT_INT64", "tensorShape": {}}}, "dtype": {"type": "DT_INT64"}}}, {"name": "unknown_304", "op": "Const", "attr": {"dtype": {"type": "DT_INT64"}, "value": {"tensor": {"dtype": "DT_INT64", "tensorShape": {}}}}}, {"name": "unknown_306", "op": "Const", "attr": {"value": {"tensor": {"dtype": "DT_INT64", "tensorShape": {}}}, "dtype": {"type": "DT_INT64"}}}, {"name": "unknown_308", "op": "Const", "attr": {"value": {"tensor": {"dtype": "DT_INT64", "tensorShape": {}}}, "dtype": {"type": "DT_INT64"}}}, {"name": "unknown_310", "op": "Const", "attr": {"value": {"tensor": {"dtype": "DT_INT64", "tensorShape": {}}}, "dtype": {"type": "DT_INT64"}}}, {"name": "unknown_312", "op": "Const", "attr": {"value": {"tensor": {"dtype": "DT_INT64", "tensorShape": {}}}, "dtype": {"type": "DT_INT64"}}}, {"name": "unknown_314", "op": "Const", "attr": {"value": {"tensor": {"dtype": "DT_INT64", "tensorShape": {}}}, "dtype": {"type": "DT_INT64"}}}, {"name": "unknown_316", "op": "Const", "attr": {"value": {"tensor": {"dtype": "DT_INT64", "tensorShape": {}}}, "dtype": {"type": "DT_INT64"}}}, {"name": "unknown_318", "op": "Const", "attr": {"dtype": {"type": "DT_INT64"}, "value": {"tensor": {"dtype": "DT_INT64", "tensorShape": {}}}}}, {"name": "unknown_320", "op": "Const", "attr": {"dtype": {"type": "DT_INT64"}, "value": {"tensor": {"dtype": "DT_INT64", "tensorShape": {}}}}}, {"name": "unknown_322", "op": "Const", "attr": {"value": {"tensor": {"dtype": "DT_INT64", "tensorShape": {}}}, "dtype": {"type": "DT_INT64"}}}, {"name": "unknown_324", "op": "Const", "attr": {"value": {"tensor": {"dtype": "DT_INT64", "tensorShape": {}}}, "dtype": {"type": "DT_INT64"}}}, {"name": "unknown_326", "op": "Const", "attr": {"value": {"tensor": {"dtype": "DT_INT64", "tensorShape": {}}}, "dtype": {"type": "DT_INT64"}}}, {"name": "unknown_328", "op": "Const", "attr": {"dtype": {"type": "DT_INT64"}, "value": {"tensor": {"dtype": "DT_INT64", "tensorShape": {}}}}}, {"name": "unknown_330", "op": "Const", "attr": {"value": {"tensor": {"dtype": "DT_INT64", "tensorShape": {}}}, "dtype": {"type": "DT_INT64"}}}, {"name": "unknown_332", "op": "Const", "attr": {"value": {"tensor": {"dtype": "DT_INT64", "tensorShape": {}}}, "dtype": {"type": "DT_INT64"}}}, {"name": "unknown_334", "op": "Const", "attr": {"value": {"tensor": {"dtype": "DT_INT64", "tensorShape": {}}}, "dtype": {"type": "DT_INT64"}}}, {"name": "unknown_336", "op": "Const", "attr": {"dtype": {"type": "DT_INT64"}, "value": {"tensor": {"dtype": "DT_INT64", "tensorShape": {}}}}}, {"name": "unknown_338", "op": "Const", "attr": {"value": {"tensor": {"dtype": "DT_INT64", "tensorShape": {}}}, "dtype": {"type": "DT_INT64"}}}, {"name": "unknown_340", "op": "Const", "attr": {"value": {"tensor": {"dtype": "DT_INT64", "tensorShape": {}}}, "dtype": {"type": "DT_INT64"}}}, {"name": "unknown_342", "op": "Const", "attr": {"value": {"tensor": {"dtype": "DT_INT64", "tensorShape": {}}}, "dtype": {"type": "DT_INT64"}}}, {"name": "unknown_344", "op": "Const", "attr": {"value": {"tensor": {"dtype": "DT_INT64", "tensorShape": {}}}, "dtype": {"type": "DT_INT64"}}}, {"name": "unknown_346", "op": "Const", "attr": {"dtype": {"type": "DT_INT64"}, "value": {"tensor": {"dtype": "DT_INT64", "tensorShape": {}}}}}, {"name": "unknown_348", "op": "Const", "attr": {"value": {"tensor": {"dtype": "DT_INT64", "tensorShape": {}}}, "dtype": {"type": "DT_INT64"}}}, {"name": "unknown_350", "op": "Const", "attr": {"value": {"tensor": {"dtype": "DT_INT64", "tensorShape": {}}}, "dtype": {"type": "DT_INT64"}}}, {"name": "unknown_352", "op": "Const", "attr": {"value": {"tensor": {"dtype": "DT_INT64", "tensorShape": {}}}, "dtype": {"type": "DT_INT64"}}}, {"name": "unknown_354", "op": "Const", "attr": {"value": {"tensor": {"dtype": "DT_INT64", "tensorShape": {}}}, "dtype": {"type": "DT_INT64"}}}, {"name": "unknown_356", "op": "Const", "attr": {"value": {"tensor": {"dtype": "DT_INT64", "tensorShape": {}}}, "dtype": {"type": "DT_INT64"}}}, {"name": "unknown_358", "op": "Const", "attr": {"dtype": {"type": "DT_INT64"}, "value": {"tensor": {"dtype": "DT_INT64", "tensorShape": {}}}}}, {"name": "unknown_360", "op": "Const", "attr": {"value": {"tensor": {"dtype": "DT_INT64", "tensorShape": {}}}, "dtype": {"type": "DT_INT64"}}}, {"name": "unknown_362", "op": "Const", "attr": {"value": {"tensor": {"dtype": "DT_INT64", "tensorShape": {}}}, "dtype": {"type": "DT_INT64"}}}, {"name": "unknown_364", "op": "Const", "attr": {"value": {"tensor": {"dtype": "DT_INT64", "tensorShape": {}}}, "dtype": {"type": "DT_INT64"}}}, {"name": "unknown_366", "op": "Const", "attr": {"dtype": {"type": "DT_INT64"}, "value": {"tensor": {"dtype": "DT_INT64", "tensorShape": {}}}}}, {"name": "unknown_368", "op": "Const", "attr": {"value": {"tensor": {"dtype": "DT_INT64", "tensorShape": {}}}, "dtype": {"type": "DT_INT64"}}}, {"name": "unknown_370", "op": "Const", "attr": {"dtype": {"type": "DT_INT64"}, "value": {"tensor": {"dtype": "DT_INT64", "tensorShape": {}}}}}, {"name": "unknown_372", "op": "Const", "attr": {"value": {"tensor": {"dtype": "DT_INT64", "tensorShape": {}}}, "dtype": {"type": "DT_INT64"}}}, {"name": "unknown_374", "op": "Const", "attr": {"value": {"tensor": {"dtype": "DT_INT64", "tensorShape": {}}}, "dtype": {"type": "DT_INT64"}}}, {"name": "unknown_376", "op": "Const", "attr": {"dtype": {"type": "DT_INT64"}, "value": {"tensor": {"dtype": "DT_INT64", "tensorShape": {}}}}}, {"name": "unknown_378", "op": "Const", "attr": {"dtype": {"type": "DT_INT64"}, "value": {"tensor": {"dtype": "DT_INT64", "tensorShape": {}}}}}, {"name": "unknown_380", "op": "Const", "attr": {"dtype": {"type": "DT_INT64"}, "value": {"tensor": {"dtype": "DT_INT64", "tensorShape": {}}}}}, {"name": "unknown_382", "op": "Const", "attr": {"value": {"tensor": {"dtype": "DT_INT64", "tensorShape": {}}}, "dtype": {"type": "DT_INT64"}}}, {"name": "unknown_384", "op": "Const", "attr": {"value": {"tensor": {"dtype": "DT_INT64", "tensorShape": {}}}, "dtype": {"type": "DT_INT64"}}}, {"name": "StatefulPartitionedCall/model_1/concatenate_1/concat/axis", "op": "Const", "attr": {"value": {"tensor": {"dtype": "DT_INT32", "tensorShape": {}}}, "dtype": {"type": "DT_INT32"}}}, {"name": "StatefulPartitionedCall/model_1/dense_2/MatMul/ReadVariableOp", "op": "Const", "attr": {"value": {"tensor": {"dtype": "DT_FLOAT", "tensorShape": {"dim": [{"size": "707"}, {"size": "32"}]}}}, "dtype": {"type": "DT_FLOAT"}}}, {"name": "StatefulPartitionedCall/model_1/dense_2/BiasAdd/ReadVariableOp", "op": "Const", "attr": {"value": {"tensor": {"dtype": "DT_FLOAT", "tensorShape": {"dim": [{"size": "32"}]}}}, "dtype": {"type": "DT_FLOAT"}}}, {"name": "StatefulPartitionedCall/model_1/dense_3/MatMul/ReadVariableOp", "op": "Const", "attr": {"value": {"tensor": {"dtype": "DT_FLOAT", "tensorShape": {"dim": [{"size": "32"}, {"size": "1"}]}}}, "dtype": {"type": "DT_FLOAT"}}}, {"name": "StatefulPartitionedCall/model_1/dense_3/BiasAdd/ReadVariableOp", "op": "Const", "attr": {"dtype": {"type": "DT_FLOAT"}, "value": {"tensor": {"dtype": "DT_FLOAT", "tensorShape": {"dim": [{"size": "1"}]}}}}}, {"name": "a1", "op": "Placeholder", "attr": {"shape": {"shape": {"dim": [{"size": "-1"}, {"size": "1"}]}}, "dtype": {"type": "DT_STRING"}}}, {"name": "a2", "op": "Placeholder", "attr": {"shape": {"shape": {"dim": [{"size": "-1"}, {"size": "1"}]}}, "dtype": {"type": "DT_STRING"}}}, {"name": "a3", "op": "Placeholder", "attr": {"dtype": {"type": "DT_STRING"}, "shape": {"shape": {"dim": [{"size": "-1"}, {"size": "1"}]}}}}, {"name": "a4", "op": "Placeholder", "attr": {"dtype": {"type": "DT_STRING"}, "shape": {"shape": {"dim": [{"size": "-1"}, {"size": "1"}]}}}}, {"name": "a5", "op": "Placeholder", "attr": {"dtype": {"type": "DT_STRING"}, "shape": {"shape": {"dim": [{"size": "-1"}, {"size": "1"}]}}}}, {"name": "a6", "op": "Placeholder", "attr": {"shape": {"shape": {"dim": [{"size": "-1"}, {"size": "1"}]}}, "dtype": {"type": "DT_STRING"}}}, {"name": "a7", "op": "Placeholder", "attr": {"shape": {"shape": {"dim": [{"size": "-1"}, {"size": "1"}]}}, "dtype": {"type": "DT_STRING"}}}, {"name": "a8", "op": "Placeholder", "attr": {"shape": {"shape": {"dim": [{"size": "-1"}, {"size": "1"}]}}, "dtype": {"type": "DT_STRING"}}}, {"name": "b1", "op": "Placeholder", "attr": {"dtype": {"type": "DT_STRING"}, "shape": {"shape": {"dim": [{"size": "-1"}, {"size": "1"}]}}}}, {"name": "b2", "op": "Placeholder", "attr": {"dtype": {"type": "DT_STRING"}, "shape": {"shape": {"dim": [{"size": "-1"}, {"size": "1"}]}}}}, {"name": "b3", "op": "Placeholder", "attr": {"dtype": {"type": "DT_STRING"}, "shape": {"shape": {"dim": [{"size": "-1"}, {"size": "1"}]}}}}, {"name": "b4", "op": "Placeholder", "attr": {"shape": {"shape": {"dim": [{"size": "-1"}, {"size": "1"}]}}, "dtype": {"type": "DT_STRING"}}}, {"name": "b5", "op": "Placeholder", "attr": {"shape": {"shape": {"dim": [{"size": "-1"}, {"size": "1"}]}}, "dtype": {"type": "DT_STRING"}}}, {"name": "b6", "op": "Placeholder", "attr": {"dtype": {"type": "DT_STRING"}, "shape": {"shape": {"dim": [{"size": "-1"}, {"size": "1"}]}}}}, {"name": "b7", "op": "Placeholder", "attr": {"shape": {"shape": {"dim": [{"size": "-1"}, {"size": "1"}]}}, "dtype": {"type": "DT_STRING"}}}, {"name": "b8", "op": "Placeholder", "attr": {"shape": {"shape": {"dim": [{"size": "-1"}, {"size": "1"}]}}, "dtype": {"type": "DT_STRING"}}}, {"name": "c1", "op": "Placeholder", "attr": {"dtype": {"type": "DT_STRING"}, "shape": {"shape": {"dim": [{"size": "-1"}, {"size": "1"}]}}}}, {"name": "c2", "op": "Placeholder", "attr": {"dtype": {"type": "DT_STRING"}, "shape": {"shape": {"dim": [{"size": "-1"}, {"size": "1"}]}}}}, {"name": "c3", "op": "Placeholder", "attr": {"dtype": {"type": "DT_STRING"}, "shape": {"shape": {"dim": [{"size": "-1"}, {"size": "1"}]}}}}, {"name": "c4", "op": "Placeholder", "attr": {"dtype": {"type": "DT_STRING"}, "shape": {"shape": {"dim": [{"size": "-1"}, {"size": "1"}]}}}}, {"name": "c5", "op": "Placeholder", "attr": {"dtype": {"type": "DT_STRING"}, "shape": {"shape": {"dim": [{"size": "-1"}, {"size": "1"}]}}}}, {"name": "c6", "op": "Placeholder", "attr": {"dtype": {"type": "DT_STRING"}, "shape": {"shape": {"dim": [{"size": "-1"}, {"size": "1"}]}}}}, {"name": "c7", "op": "Placeholder", "attr": {"dtype": {"type": "DT_STRING"}, "shape": {"shape": {"dim": [{"size": "-1"}, {"size": "1"}]}}}}, {"name": "c8", "op": "Placeholder", "attr": {"dtype": {"type": "DT_STRING"}, "shape": {"shape": {"dim": [{"size": "-1"}, {"size": "1"}]}}}}, {"name": "colour_to_move", "op": "Placeholder", "attr": {"dtype": {"type": "DT_DOUBLE"}, "shape": {"shape": {"dim": [{"size": "-1"}, {"size": "1"}]}}}}, {"name": "d1", "op": "Placeholder", "attr": {"dtype": {"type": "DT_STRING"}, "shape": {"shape": {"dim": [{"size": "-1"}, {"size": "1"}]}}}}, {"name": "d2", "op": "Placeholder", "attr": {"dtype": {"type": "DT_STRING"}, "shape": {"shape": {"dim": [{"size": "-1"}, {"size": "1"}]}}}}, {"name": "d3", "op": "Placeholder", "attr": {"shape": {"shape": {"dim": [{"size": "-1"}, {"size": "1"}]}}, "dtype": {"type": "DT_STRING"}}}, {"name": "d4", "op": "Placeholder", "attr": {"dtype": {"type": "DT_STRING"}, "shape": {"shape": {"dim": [{"size": "-1"}, {"size": "1"}]}}}}, {"name": "d5", "op": "Placeholder", "attr": {"shape": {"shape": {"dim": [{"size": "-1"}, {"size": "1"}]}}, "dtype": {"type": "DT_STRING"}}}, {"name": "d6", "op": "Placeholder", "attr": {"shape": {"shape": {"dim": [{"size": "-1"}, {"size": "1"}]}}, "dtype": {"type": "DT_STRING"}}}, {"name": "d7", "op": "Placeholder", "attr": {"dtype": {"type": "DT_STRING"}, "shape": {"shape": {"dim": [{"size": "-1"}, {"size": "1"}]}}}}, {"name": "d8", "op": "Placeholder", "attr": {"shape": {"shape": {"dim": [{"size": "-1"}, {"size": "1"}]}}, "dtype": {"type": "DT_STRING"}}}, {"name": "e1", "op": "Placeholder", "attr": {"shape": {"shape": {"dim": [{"size": "-1"}, {"size": "1"}]}}, "dtype": {"type": "DT_STRING"}}}, {"name": "e2", "op": "Placeholder", "attr": {"shape": {"shape": {"dim": [{"size": "-1"}, {"size": "1"}]}}, "dtype": {"type": "DT_STRING"}}}, {"name": "e3", "op": "Placeholder", "attr": {"dtype": {"type": "DT_STRING"}, "shape": {"shape": {"dim": [{"size": "-1"}, {"size": "1"}]}}}}, {"name": "e4", "op": "Placeholder", "attr": {"dtype": {"type": "DT_STRING"}, "shape": {"shape": {"dim": [{"size": "-1"}, {"size": "1"}]}}}}, {"name": "e5", "op": "Placeholder", "attr": {"dtype": {"type": "DT_STRING"}, "shape": {"shape": {"dim": [{"size": "-1"}, {"size": "1"}]}}}}, {"name": "e6", "op": "Placeholder", "attr": {"dtype": {"type": "DT_STRING"}, "shape": {"shape": {"dim": [{"size": "-1"}, {"size": "1"}]}}}}, {"name": "e7", "op": "Placeholder", "attr": {"shape": {"shape": {"dim": [{"size": "-1"}, {"size": "1"}]}}, "dtype": {"type": "DT_STRING"}}}, {"name": "e8", "op": "Placeholder", "attr": {"shape": {"shape": {"dim": [{"size": "-1"}, {"size": "1"}]}}, "dtype": {"type": "DT_STRING"}}}, {"name": "f1", "op": "Placeholder", "attr": {"dtype": {"type": "DT_STRING"}, "shape": {"shape": {"dim": [{"size": "-1"}, {"size": "1"}]}}}}, {"name": "f2", "op": "Placeholder", "attr": {"dtype": {"type": "DT_STRING"}, "shape": {"shape": {"dim": [{"size": "-1"}, {"size": "1"}]}}}}, {"name": "f3", "op": "Placeholder", "attr": {"dtype": {"type": "DT_STRING"}, "shape": {"shape": {"dim": [{"size": "-1"}, {"size": "1"}]}}}}, {"name": "f4", "op": "Placeholder", "attr": {"shape": {"shape": {"dim": [{"size": "-1"}, {"size": "1"}]}}, "dtype": {"type": "DT_STRING"}}}, {"name": "f5", "op": "Placeholder", "attr": {"dtype": {"type": "DT_STRING"}, "shape": {"shape": {"dim": [{"size": "-1"}, {"size": "1"}]}}}}, {"name": "f6", "op": "Placeholder", "attr": {"dtype": {"type": "DT_STRING"}, "shape": {"shape": {"dim": [{"size": "-1"}, {"size": "1"}]}}}}, {"name": "f7", "op": "Placeholder", "attr": {"dtype": {"type": "DT_STRING"}, "shape": {"shape": {"dim": [{"size": "-1"}, {"size": "1"}]}}}}, {"name": "f8", "op": "Placeholder", "attr": {"dtype": {"type": "DT_STRING"}, "shape": {"shape": {"dim": [{"size": "-1"}, {"size": "1"}]}}}}, {"name": "from_a1", "op": "Placeholder", "attr": {"dtype": {"type": "DT_DOUBLE"}, "shape": {"shape": {"dim": [{"size": "-1"}, {"size": "1"}]}}}}, {"name": "from_a2", "op": "Placeholder", "attr": {"dtype": {"type": "DT_DOUBLE"}, "shape": {"shape": {"dim": [{"size": "-1"}, {"size": "1"}]}}}}, {"name": "from_a3", "op": "Placeholder", "attr": {"shape": {"shape": {"dim": [{"size": "-1"}, {"size": "1"}]}}, "dtype": {"type": "DT_DOUBLE"}}}, {"name": "from_a4", "op": "Placeholder", "attr": {"dtype": {"type": "DT_DOUBLE"}, "shape": {"shape": {"dim": [{"size": "-1"}, {"size": "1"}]}}}}, {"name": "from_a5", "op": "Placeholder", "attr": {"shape": {"shape": {"dim": [{"size": "-1"}, {"size": "1"}]}}, "dtype": {"type": "DT_DOUBLE"}}}, {"name": "from_a6", "op": "Placeholder", "attr": {"dtype": {"type": "DT_DOUBLE"}, "shape": {"shape": {"dim": [{"size": "-1"}, {"size": "1"}]}}}}, {"name": "from_a7", "op": "Placeholder", "attr": {"shape": {"shape": {"dim": [{"size": "-1"}, {"size": "1"}]}}, "dtype": {"type": "DT_DOUBLE"}}}, {"name": "from_a8", "op": "Placeholder", "attr": {"shape": {"shape": {"dim": [{"size": "-1"}, {"size": "1"}]}}, "dtype": {"type": "DT_DOUBLE"}}}, {"name": "from_b1", "op": "Placeholder", "attr": {"dtype": {"type": "DT_DOUBLE"}, "shape": {"shape": {"dim": [{"size": "-1"}, {"size": "1"}]}}}}, {"name": "from_b2", "op": "Placeholder", "attr": {"dtype": {"type": "DT_DOUBLE"}, "shape": {"shape": {"dim": [{"size": "-1"}, {"size": "1"}]}}}}, {"name": "from_b3", "op": "Placeholder", "attr": {"shape": {"shape": {"dim": [{"size": "-1"}, {"size": "1"}]}}, "dtype": {"type": "DT_DOUBLE"}}}, {"name": "from_b4", "op": "Placeholder", "attr": {"dtype": {"type": "DT_DOUBLE"}, "shape": {"shape": {"dim": [{"size": "-1"}, {"size": "1"}]}}}}, {"name": "from_b5", "op": "Placeholder", "attr": {"dtype": {"type": "DT_DOUBLE"}, "shape": {"shape": {"dim": [{"size": "-1"}, {"size": "1"}]}}}}, {"name": "from_b6", "op": "Placeholder", "attr": {"shape": {"shape": {"dim": [{"size": "-1"}, {"size": "1"}]}}, "dtype": {"type": "DT_DOUBLE"}}}, {"name": "from_b7", "op": "Placeholder", "attr": {"dtype": {"type": "DT_DOUBLE"}, "shape": {"shape": {"dim": [{"size": "-1"}, {"size": "1"}]}}}}, {"name": "from_b8", "op": "Placeholder", "attr": {"shape": {"shape": {"dim": [{"size": "-1"}, {"size": "1"}]}}, "dtype": {"type": "DT_DOUBLE"}}}, {"name": "from_c1", "op": "Placeholder", "attr": {"dtype": {"type": "DT_DOUBLE"}, "shape": {"shape": {"dim": [{"size": "-1"}, {"size": "1"}]}}}}, {"name": "from_c2", "op": "Placeholder", "attr": {"dtype": {"type": "DT_DOUBLE"}, "shape": {"shape": {"dim": [{"size": "-1"}, {"size": "1"}]}}}}, {"name": "from_c3", "op": "Placeholder", "attr": {"dtype": {"type": "DT_DOUBLE"}, "shape": {"shape": {"dim": [{"size": "-1"}, {"size": "1"}]}}}}, {"name": "from_c4", "op": "Placeholder", "attr": {"dtype": {"type": "DT_DOUBLE"}, "shape": {"shape": {"dim": [{"size": "-1"}, {"size": "1"}]}}}}, {"name": "from_c5", "op": "Placeholder", "attr": {"shape": {"shape": {"dim": [{"size": "-1"}, {"size": "1"}]}}, "dtype": {"type": "DT_DOUBLE"}}}, {"name": "from_c6", "op": "Placeholder", "attr": {"shape": {"shape": {"dim": [{"size": "-1"}, {"size": "1"}]}}, "dtype": {"type": "DT_DOUBLE"}}}, {"name": "from_c7", "op": "Placeholder", "attr": {"dtype": {"type": "DT_DOUBLE"}, "shape": {"shape": {"dim": [{"size": "-1"}, {"size": "1"}]}}}}, {"name": "from_c8", "op": "Placeholder", "attr": {"dtype": {"type": "DT_DOUBLE"}, "shape": {"shape": {"dim": [{"size": "-1"}, {"size": "1"}]}}}}, {"name": "from_d1", "op": "Placeholder", "attr": {"shape": {"shape": {"dim": [{"size": "-1"}, {"size": "1"}]}}, "dtype": {"type": "DT_DOUBLE"}}}, {"name": "from_d2", "op": "Placeholder", "attr": {"dtype": {"type": "DT_DOUBLE"}, "shape": {"shape": {"dim": [{"size": "-1"}, {"size": "1"}]}}}}, {"name": "from_d3", "op": "Placeholder", "attr": {"dtype": {"type": "DT_DOUBLE"}, "shape": {"shape": {"dim": [{"size": "-1"}, {"size": "1"}]}}}}, {"name": "from_d4", "op": "Placeholder", "attr": {"dtype": {"type": "DT_DOUBLE"}, "shape": {"shape": {"dim": [{"size": "-1"}, {"size": "1"}]}}}}, {"name": "from_d5", "op": "Placeholder", "attr": {"dtype": {"type": "DT_DOUBLE"}, "shape": {"shape": {"dim": [{"size": "-1"}, {"size": "1"}]}}}}, {"name": "from_d6", "op": "Placeholder", "attr": {"shape": {"shape": {"dim": [{"size": "-1"}, {"size": "1"}]}}, "dtype": {"type": "DT_DOUBLE"}}}, {"name": "from_d7", "op": "Placeholder", "attr": {"shape": {"shape": {"dim": [{"size": "-1"}, {"size": "1"}]}}, "dtype": {"type": "DT_DOUBLE"}}}, {"name": "from_d8", "op": "Placeholder", "attr": {"dtype": {"type": "DT_DOUBLE"}, "shape": {"shape": {"dim": [{"size": "-1"}, {"size": "1"}]}}}}, {"name": "from_e1", "op": "Placeholder", "attr": {"dtype": {"type": "DT_DOUBLE"}, "shape": {"shape": {"dim": [{"size": "-1"}, {"size": "1"}]}}}}, {"name": "from_e2", "op": "Placeholder", "attr": {"dtype": {"type": "DT_DOUBLE"}, "shape": {"shape": {"dim": [{"size": "-1"}, {"size": "1"}]}}}}, {"name": "from_e3", "op": "Placeholder", "attr": {"shape": {"shape": {"dim": [{"size": "-1"}, {"size": "1"}]}}, "dtype": {"type": "DT_DOUBLE"}}}, {"name": "from_e4", "op": "Placeholder", "attr": {"dtype": {"type": "DT_DOUBLE"}, "shape": {"shape": {"dim": [{"size": "-1"}, {"size": "1"}]}}}}, {"name": "from_e5", "op": "Placeholder", "attr": {"shape": {"shape": {"dim": [{"size": "-1"}, {"size": "1"}]}}, "dtype": {"type": "DT_DOUBLE"}}}, {"name": "from_e6", "op": "Placeholder", "attr": {"dtype": {"type": "DT_DOUBLE"}, "shape": {"shape": {"dim": [{"size": "-1"}, {"size": "1"}]}}}}, {"name": "from_e7", "op": "Placeholder", "attr": {"dtype": {"type": "DT_DOUBLE"}, "shape": {"shape": {"dim": [{"size": "-1"}, {"size": "1"}]}}}}, {"name": "from_e8", "op": "Placeholder", "attr": {"dtype": {"type": "DT_DOUBLE"}, "shape": {"shape": {"dim": [{"size": "-1"}, {"size": "1"}]}}}}, {"name": "from_f1", "op": "Placeholder", "attr": {"shape": {"shape": {"dim": [{"size": "-1"}, {"size": "1"}]}}, "dtype": {"type": "DT_DOUBLE"}}}, {"name": "from_f2", "op": "Placeholder", "attr": {"dtype": {"type": "DT_DOUBLE"}, "shape": {"shape": {"dim": [{"size": "-1"}, {"size": "1"}]}}}}, {"name": "from_f3", "op": "Placeholder", "attr": {"dtype": {"type": "DT_DOUBLE"}, "shape": {"shape": {"dim": [{"size": "-1"}, {"size": "1"}]}}}}, {"name": "from_f4", "op": "Placeholder", "attr": {"dtype": {"type": "DT_DOUBLE"}, "shape": {"shape": {"dim": [{"size": "-1"}, {"size": "1"}]}}}}, {"name": "from_f5", "op": "Placeholder", "attr": {"dtype": {"type": "DT_DOUBLE"}, "shape": {"shape": {"dim": [{"size": "-1"}, {"size": "1"}]}}}}, {"name": "from_f6", "op": "Placeholder", "attr": {"dtype": {"type": "DT_DOUBLE"}, "shape": {"shape": {"dim": [{"size": "-1"}, {"size": "1"}]}}}}, {"name": "from_f7", "op": "Placeholder", "attr": {"dtype": {"type": "DT_DOUBLE"}, "shape": {"shape": {"dim": [{"size": "-1"}, {"size": "1"}]}}}}, {"name": "from_f8", "op": "Placeholder", "attr": {"dtype": {"type": "DT_DOUBLE"}, "shape": {"shape": {"dim": [{"size": "-1"}, {"size": "1"}]}}}}, {"name": "from_g1", "op": "Placeholder", "attr": {"shape": {"shape": {"dim": [{"size": "-1"}, {"size": "1"}]}}, "dtype": {"type": "DT_DOUBLE"}}}, {"name": "from_g2", "op": "Placeholder", "attr": {"shape": {"shape": {"dim": [{"size": "-1"}, {"size": "1"}]}}, "dtype": {"type": "DT_DOUBLE"}}}, {"name": "from_g3", "op": "Placeholder", "attr": {"dtype": {"type": "DT_DOUBLE"}, "shape": {"shape": {"dim": [{"size": "-1"}, {"size": "1"}]}}}}, {"name": "from_g4", "op": "Placeholder", "attr": {"shape": {"shape": {"dim": [{"size": "-1"}, {"size": "1"}]}}, "dtype": {"type": "DT_DOUBLE"}}}, {"name": "from_g5", "op": "Placeholder", "attr": {"dtype": {"type": "DT_DOUBLE"}, "shape": {"shape": {"dim": [{"size": "-1"}, {"size": "1"}]}}}}, {"name": "from_g6", "op": "Placeholder", "attr": {"dtype": {"type": "DT_DOUBLE"}, "shape": {"shape": {"dim": [{"size": "-1"}, {"size": "1"}]}}}}, {"name": "from_g7", "op": "Placeholder", "attr": {"dtype": {"type": "DT_DOUBLE"}, "shape": {"shape": {"dim": [{"size": "-1"}, {"size": "1"}]}}}}, {"name": "from_g8", "op": "Placeholder", "attr": {"dtype": {"type": "DT_DOUBLE"}, "shape": {"shape": {"dim": [{"size": "-1"}, {"size": "1"}]}}}}, {"name": "from_h1", "op": "Placeholder", "attr": {"dtype": {"type": "DT_DOUBLE"}, "shape": {"shape": {"dim": [{"size": "-1"}, {"size": "1"}]}}}}, {"name": "from_h2", "op": "Placeholder", "attr": {"shape": {"shape": {"dim": [{"size": "-1"}, {"size": "1"}]}}, "dtype": {"type": "DT_DOUBLE"}}}, {"name": "from_h3", "op": "Placeholder", "attr": {"shape": {"shape": {"dim": [{"size": "-1"}, {"size": "1"}]}}, "dtype": {"type": "DT_DOUBLE"}}}, {"name": "from_h4", "op": "Placeholder", "attr": {"shape": {"shape": {"dim": [{"size": "-1"}, {"size": "1"}]}}, "dtype": {"type": "DT_DOUBLE"}}}, {"name": "from_h5", "op": "Placeholder", "attr": {"dtype": {"type": "DT_DOUBLE"}, "shape": {"shape": {"dim": [{"size": "-1"}, {"size": "1"}]}}}}, {"name": "from_h6", "op": "Placeholder", "attr": {"shape": {"shape": {"dim": [{"size": "-1"}, {"size": "1"}]}}, "dtype": {"type": "DT_DOUBLE"}}}, {"name": "from_h7", "op": "Placeholder", "attr": {"shape": {"shape": {"dim": [{"size": "-1"}, {"size": "1"}]}}, "dtype": {"type": "DT_DOUBLE"}}}, {"name": "from_h8", "op": "Placeholder", "attr": {"dtype": {"type": "DT_DOUBLE"}, "shape": {"shape": {"dim": [{"size": "-1"}, {"size": "1"}]}}}}, {"name": "g1", "op": "Placeholder", "attr": {"dtype": {"type": "DT_STRING"}, "shape": {"shape": {"dim": [{"size": "-1"}, {"size": "1"}]}}}}, {"name": "g2", "op": "Placeholder", "attr": {"shape": {"shape": {"dim": [{"size": "-1"}, {"size": "1"}]}}, "dtype": {"type": "DT_STRING"}}}, {"name": "g3", "op": "Placeholder", "attr": {"dtype": {"type": "DT_STRING"}, "shape": {"shape": {"dim": [{"size": "-1"}, {"size": "1"}]}}}}, {"name": "g4", "op": "Placeholder", "attr": {"dtype": {"type": "DT_STRING"}, "shape": {"shape": {"dim": [{"size": "-1"}, {"size": "1"}]}}}}, {"name": "g5", "op": "Placeholder", "attr": {"dtype": {"type": "DT_STRING"}, "shape": {"shape": {"dim": [{"size": "-1"}, {"size": "1"}]}}}}, {"name": "g6", "op": "Placeholder", "attr": {"dtype": {"type": "DT_STRING"}, "shape": {"shape": {"dim": [{"size": "-1"}, {"size": "1"}]}}}}, {"name": "g7", "op": "Placeholder", "attr": {"dtype": {"type": "DT_STRING"}, "shape": {"shape": {"dim": [{"size": "-1"}, {"size": "1"}]}}}}, {"name": "g8", "op": "Placeholder", "attr": {"shape": {"shape": {"dim": [{"size": "-1"}, {"size": "1"}]}}, "dtype": {"type": "DT_STRING"}}}, {"name": "h1", "op": "Placeholder", "attr": {"dtype": {"type": "DT_STRING"}, "shape": {"shape": {"dim": [{"size": "-1"}, {"size": "1"}]}}}}, {"name": "h2", "op": "Placeholder", "attr": {"shape": {"shape": {"dim": [{"size": "-1"}, {"size": "1"}]}}, "dtype": {"type": "DT_STRING"}}}, {"name": "h3", "op": "Placeholder", "attr": {"dtype": {"type": "DT_STRING"}, "shape": {"shape": {"dim": [{"size": "-1"}, {"size": "1"}]}}}}, {"name": "h4", "op": "Placeholder", "attr": {"dtype": {"type": "DT_STRING"}, "shape": {"shape": {"dim": [{"size": "-1"}, {"size": "1"}]}}}}, {"name": "h5", "op": "Placeholder", "attr": {"shape": {"shape": {"dim": [{"size": "-1"}, {"size": "1"}]}}, "dtype": {"type": "DT_STRING"}}}, {"name": "h6", "op": "Placeholder", "attr": {"shape": {"shape": {"dim": [{"size": "-1"}, {"size": "1"}]}}, "dtype": {"type": "DT_STRING"}}}, {"name": "h7", "op": "Placeholder", "attr": {"dtype": {"type": "DT_STRING"}, "shape": {"shape": {"dim": [{"size": "-1"}, {"size": "1"}]}}}}, {"name": "h8", "op": "Placeholder", "attr": {"shape": {"shape": {"dim": [{"size": "-1"}, {"size": "1"}]}}, "dtype": {"type": "DT_STRING"}}}, {"name": "to_a1", "op": "Placeholder", "attr": {"dtype": {"type": "DT_DOUBLE"}, "shape": {"shape": {"dim": [{"size": "-1"}, {"size": "1"}]}}}}, {"name": "to_a2", "op": "Placeholder", "attr": {"shape": {"shape": {"dim": [{"size": "-1"}, {"size": "1"}]}}, "dtype": {"type": "DT_DOUBLE"}}}, {"name": "to_a3", "op": "Placeholder", "attr": {"shape": {"shape": {"dim": [{"size": "-1"}, {"size": "1"}]}}, "dtype": {"type": "DT_DOUBLE"}}}, {"name": "to_a4", "op": "Placeholder", "attr": {"shape": {"shape": {"dim": [{"size": "-1"}, {"size": "1"}]}}, "dtype": {"type": "DT_DOUBLE"}}}, {"name": "to_a5", "op": "Placeholder", "attr": {"shape": {"shape": {"dim": [{"size": "-1"}, {"size": "1"}]}}, "dtype": {"type": "DT_DOUBLE"}}}, {"name": "to_a6", "op": "Placeholder", "attr": {"dtype": {"type": "DT_DOUBLE"}, "shape": {"shape": {"dim": [{"size": "-1"}, {"size": "1"}]}}}}, {"name": "to_a7", "op": "Placeholder", "attr": {"dtype": {"type": "DT_DOUBLE"}, "shape": {"shape": {"dim": [{"size": "-1"}, {"size": "1"}]}}}}, {"name": "to_a8", "op": "Placeholder", "attr": {"dtype": {"type": "DT_DOUBLE"}, "shape": {"shape": {"dim": [{"size": "-1"}, {"size": "1"}]}}}}, {"name": "to_b1", "op": "Placeholder", "attr": {"dtype": {"type": "DT_DOUBLE"}, "shape": {"shape": {"dim": [{"size": "-1"}, {"size": "1"}]}}}}, {"name": "to_b2", "op": "Placeholder", "attr": {"dtype": {"type": "DT_DOUBLE"}, "shape": {"shape": {"dim": [{"size": "-1"}, {"size": "1"}]}}}}, {"name": "to_b3", "op": "Placeholder", "attr": {"dtype": {"type": "DT_DOUBLE"}, "shape": {"shape": {"dim": [{"size": "-1"}, {"size": "1"}]}}}}, {"name": "to_b4", "op": "Placeholder", "attr": {"dtype": {"type": "DT_DOUBLE"}, "shape": {"shape": {"dim": [{"size": "-1"}, {"size": "1"}]}}}}, {"name": "to_b5", "op": "Placeholder", "attr": {"shape": {"shape": {"dim": [{"size": "-1"}, {"size": "1"}]}}, "dtype": {"type": "DT_DOUBLE"}}}, {"name": "to_b6", "op": "Placeholder", "attr": {"dtype": {"type": "DT_DOUBLE"}, "shape": {"shape": {"dim": [{"size": "-1"}, {"size": "1"}]}}}}, {"name": "to_b7", "op": "Placeholder", "attr": {"dtype": {"type": "DT_DOUBLE"}, "shape": {"shape": {"dim": [{"size": "-1"}, {"size": "1"}]}}}}, {"name": "to_b8", "op": "Placeholder", "attr": {"shape": {"shape": {"dim": [{"size": "-1"}, {"size": "1"}]}}, "dtype": {"type": "DT_DOUBLE"}}}, {"name": "to_c1", "op": "Placeholder", "attr": {"dtype": {"type": "DT_DOUBLE"}, "shape": {"shape": {"dim": [{"size": "-1"}, {"size": "1"}]}}}}, {"name": "to_c2", "op": "Placeholder", "attr": {"dtype": {"type": "DT_DOUBLE"}, "shape": {"shape": {"dim": [{"size": "-1"}, {"size": "1"}]}}}}, {"name": "to_c3", "op": "Placeholder", "attr": {"dtype": {"type": "DT_DOUBLE"}, "shape": {"shape": {"dim": [{"size": "-1"}, {"size": "1"}]}}}}, {"name": "to_c4", "op": "Placeholder", "attr": {"dtype": {"type": "DT_DOUBLE"}, "shape": {"shape": {"dim": [{"size": "-1"}, {"size": "1"}]}}}}, {"name": "to_c5", "op": "Placeholder", "attr": {"dtype": {"type": "DT_DOUBLE"}, "shape": {"shape": {"dim": [{"size": "-1"}, {"size": "1"}]}}}}, {"name": "to_c6", "op": "Placeholder", "attr": {"shape": {"shape": {"dim": [{"size": "-1"}, {"size": "1"}]}}, "dtype": {"type": "DT_DOUBLE"}}}, {"name": "to_c7", "op": "Placeholder", "attr": {"shape": {"shape": {"dim": [{"size": "-1"}, {"size": "1"}]}}, "dtype": {"type": "DT_DOUBLE"}}}, {"name": "to_c8", "op": "Placeholder", "attr": {"dtype": {"type": "DT_DOUBLE"}, "shape": {"shape": {"dim": [{"size": "-1"}, {"size": "1"}]}}}}, {"name": "to_d1", "op": "Placeholder", "attr": {"dtype": {"type": "DT_DOUBLE"}, "shape": {"shape": {"dim": [{"size": "-1"}, {"size": "1"}]}}}}, {"name": "to_d2", "op": "Placeholder", "attr": {"dtype": {"type": "DT_DOUBLE"}, "shape": {"shape": {"dim": [{"size": "-1"}, {"size": "1"}]}}}}, {"name": "to_d3", "op": "Placeholder", "attr": {"dtype": {"type": "DT_DOUBLE"}, "shape": {"shape": {"dim": [{"size": "-1"}, {"size": "1"}]}}}}, {"name": "to_d4", "op": "Placeholder", "attr": {"shape": {"shape": {"dim": [{"size": "-1"}, {"size": "1"}]}}, "dtype": {"type": "DT_DOUBLE"}}}, {"name": "to_d5", "op": "Placeholder", "attr": {"shape": {"shape": {"dim": [{"size": "-1"}, {"size": "1"}]}}, "dtype": {"type": "DT_DOUBLE"}}}, {"name": "to_d6", "op": "Placeholder", "attr": {"shape": {"shape": {"dim": [{"size": "-1"}, {"size": "1"}]}}, "dtype": {"type": "DT_DOUBLE"}}}, {"name": "to_d7", "op": "Placeholder", "attr": {"dtype": {"type": "DT_DOUBLE"}, "shape": {"shape": {"dim": [{"size": "-1"}, {"size": "1"}]}}}}, {"name": "to_d8", "op": "Placeholder", "attr": {"dtype": {"type": "DT_DOUBLE"}, "shape": {"shape": {"dim": [{"size": "-1"}, {"size": "1"}]}}}}, {"name": "to_e1", "op": "Placeholder", "attr": {"shape": {"shape": {"dim": [{"size": "-1"}, {"size": "1"}]}}, "dtype": {"type": "DT_DOUBLE"}}}, {"name": "to_e2", "op": "Placeholder", "attr": {"shape": {"shape": {"dim": [{"size": "-1"}, {"size": "1"}]}}, "dtype": {"type": "DT_DOUBLE"}}}, {"name": "to_e3", "op": "Placeholder", "attr": {"shape": {"shape": {"dim": [{"size": "-1"}, {"size": "1"}]}}, "dtype": {"type": "DT_DOUBLE"}}}, {"name": "to_e4", "op": "Placeholder", "attr": {"dtype": {"type": "DT_DOUBLE"}, "shape": {"shape": {"dim": [{"size": "-1"}, {"size": "1"}]}}}}, {"name": "to_e5", "op": "Placeholder", "attr": {"dtype": {"type": "DT_DOUBLE"}, "shape": {"shape": {"dim": [{"size": "-1"}, {"size": "1"}]}}}}, {"name": "to_e6", "op": "Placeholder", "attr": {"dtype": {"type": "DT_DOUBLE"}, "shape": {"shape": {"dim": [{"size": "-1"}, {"size": "1"}]}}}}, {"name": "to_e7", "op": "Placeholder", "attr": {"dtype": {"type": "DT_DOUBLE"}, "shape": {"shape": {"dim": [{"size": "-1"}, {"size": "1"}]}}}}, {"name": "to_e8", "op": "Placeholder", "attr": {"dtype": {"type": "DT_DOUBLE"}, "shape": {"shape": {"dim": [{"size": "-1"}, {"size": "1"}]}}}}, {"name": "to_f1", "op": "Placeholder", "attr": {"shape": {"shape": {"dim": [{"size": "-1"}, {"size": "1"}]}}, "dtype": {"type": "DT_DOUBLE"}}}, {"name": "to_f2", "op": "Placeholder", "attr": {"shape": {"shape": {"dim": [{"size": "-1"}, {"size": "1"}]}}, "dtype": {"type": "DT_DOUBLE"}}}, {"name": "to_f3", "op": "Placeholder", "attr": {"dtype": {"type": "DT_DOUBLE"}, "shape": {"shape": {"dim": [{"size": "-1"}, {"size": "1"}]}}}}, {"name": "to_f4", "op": "Placeholder", "attr": {"shape": {"shape": {"dim": [{"size": "-1"}, {"size": "1"}]}}, "dtype": {"type": "DT_DOUBLE"}}}, {"name": "to_f5", "op": "Placeholder", "attr": {"shape": {"shape": {"dim": [{"size": "-1"}, {"size": "1"}]}}, "dtype": {"type": "DT_DOUBLE"}}}, {"name": "to_f6", "op": "Placeholder", "attr": {"dtype": {"type": "DT_DOUBLE"}, "shape": {"shape": {"dim": [{"size": "-1"}, {"size": "1"}]}}}}, {"name": "to_f7", "op": "Placeholder", "attr": {"dtype": {"type": "DT_DOUBLE"}, "shape": {"shape": {"dim": [{"size": "-1"}, {"size": "1"}]}}}}, {"name": "to_f8", "op": "Placeholder", "attr": {"dtype": {"type": "DT_DOUBLE"}, "shape": {"shape": {"dim": [{"size": "-1"}, {"size": "1"}]}}}}, {"name": "to_g1", "op": "Placeholder", "attr": {"shape": {"shape": {"dim": [{"size": "-1"}, {"size": "1"}]}}, "dtype": {"type": "DT_DOUBLE"}}}, {"name": "to_g2", "op": "Placeholder", "attr": {"dtype": {"type": "DT_DOUBLE"}, "shape": {"shape": {"dim": [{"size": "-1"}, {"size": "1"}]}}}}, {"name": "to_g3", "op": "Placeholder", "attr": {"shape": {"shape": {"dim": [{"size": "-1"}, {"size": "1"}]}}, "dtype": {"type": "DT_DOUBLE"}}}, {"name": "to_g4", "op": "Placeholder", "attr": {"shape": {"shape": {"dim": [{"size": "-1"}, {"size": "1"}]}}, "dtype": {"type": "DT_DOUBLE"}}}, {"name": "to_g5", "op": "Placeholder", "attr": {"dtype": {"type": "DT_DOUBLE"}, "shape": {"shape": {"dim": [{"size": "-1"}, {"size": "1"}]}}}}, {"name": "to_g6", "op": "Placeholder", "attr": {"dtype": {"type": "DT_DOUBLE"}, "shape": {"shape": {"dim": [{"size": "-1"}, {"size": "1"}]}}}}, {"name": "to_g7", "op": "Placeholder", "attr": {"dtype": {"type": "DT_DOUBLE"}, "shape": {"shape": {"dim": [{"size": "-1"}, {"size": "1"}]}}}}, {"name": "to_g8", "op": "Placeholder", "attr": {"dtype": {"type": "DT_DOUBLE"}, "shape": {"shape": {"dim": [{"size": "-1"}, {"size": "1"}]}}}}, {"name": "to_h1", "op": "Placeholder", "attr": {"dtype": {"type": "DT_DOUBLE"}, "shape": {"shape": {"dim": [{"size": "-1"}, {"size": "1"}]}}}}, {"name": "to_h2", "op": "Placeholder", "attr": {"dtype": {"type": "DT_DOUBLE"}, "shape": {"shape": {"dim": [{"size": "-1"}, {"size": "1"}]}}}}, {"name": "to_h3", "op": "Placeholder", "attr": {"dtype": {"type": "DT_DOUBLE"}, "shape": {"shape": {"dim": [{"size": "-1"}, {"size": "1"}]}}}}, {"name": "to_h4", "op": "Placeholder", "attr": {"dtype": {"type": "DT_DOUBLE"}, "shape": {"shape": {"dim": [{"size": "-1"}, {"size": "1"}]}}}}, {"name": "to_h5", "op": "Placeholder", "attr": {"shape": {"shape": {"dim": [{"size": "-1"}, {"size": "1"}]}}, "dtype": {"type": "DT_DOUBLE"}}}, {"name": "to_h6", "op": "Placeholder", "attr": {"dtype": {"type": "DT_DOUBLE"}, "shape": {"shape": {"dim": [{"size": "-1"}, {"size": "1"}]}}}}, {"name": "to_h7", "op": "Placeholder", "attr": {"dtype": {"type": "DT_DOUBLE"}, "shape": {"shape": {"dim": [{"size": "-1"}, {"size": "1"}]}}}}, {"name": "to_h8", "op": "Placeholder", "attr": {"dtype": {"type": "DT_DOUBLE"}, "shape": {"shape": {"dim": [{"size": "-1"}, {"size": "1"}]}}}}, {"name": "unknown", "op": "Placeholder", "attr": {"dtype": {"type": "DT_RESOURCE"}, "shape": {"shape": {}}}}, {"name": "unknown_1", "op": "Placeholder", "attr": {"dtype": {"type": "DT_RESOURCE"}, "shape": {"shape": {}}}}, {"name": "unknown_101", "op": "Placeholder", "attr": {"shape": {"shape": {}}, "dtype": {"type": "DT_RESOURCE"}}}, {"name": "unknown_103", "op": "Placeholder", "attr": {"dtype": {"type": "DT_RESOURCE"}, "shape": {"shape": {}}}}, {"name": "unknown_105", "op": "Placeholder", "attr": {"shape": {"shape": {}}, "dtype": {"type": "DT_RESOURCE"}}}, {"name": "unknown_107", "op": "Placeholder", "attr": {"dtype": {"type": "DT_RESOURCE"}, "shape": {"shape": {}}}}, {"name": "unknown_109", "op": "Placeholder", "attr": {"dtype": {"type": "DT_RESOURCE"}, "shape": {"shape": {}}}}, {"name": "unknown_11", "op": "Placeholder", "attr": {"shape": {"shape": {}}, "dtype": {"type": "DT_RESOURCE"}}}, {"name": "unknown_111", "op": "Placeholder", "attr": {"dtype": {"type": "DT_RESOURCE"}, "shape": {"shape": {}}}}, {"name": "unknown_113", "op": "Placeholder", "attr": {"shape": {"shape": {}}, "dtype": {"type": "DT_RESOURCE"}}}, {"name": "unknown_115", "op": "Placeholder", "attr": {"shape": {"shape": {}}, "dtype": {"type": "DT_RESOURCE"}}}, {"name": "unknown_117", "op": "Placeholder", "attr": {"shape": {"shape": {}}, "dtype": {"type": "DT_RESOURCE"}}}, {"name": "unknown_119", "op": "Placeholder", "attr": {"shape": {"shape": {}}, "dtype": {"type": "DT_RESOURCE"}}}, {"name": "unknown_121", "op": "Placeholder", "attr": {"dtype": {"type": "DT_RESOURCE"}, "shape": {"shape": {}}}}, {"name": "unknown_123", "op": "Placeholder", "attr": {"dtype": {"type": "DT_RESOURCE"}, "shape": {"shape": {}}}}, {"name": "unknown_125", "op": "Placeholder", "attr": {"dtype": {"type": "DT_RESOURCE"}, "shape": {"shape": {}}}}, {"name": "unknown_127", "op": "Placeholder", "attr": {"shape": {"shape": {}}, "dtype": {"type": "DT_RESOURCE"}}}, {"name": "unknown_129", "op": "Placeholder", "attr": {"dtype": {"type": "DT_RESOURCE"}, "shape": {"shape": {}}}}, {"name": "unknown_13", "op": "Placeholder", "attr": {"dtype": {"type": "DT_RESOURCE"}, "shape": {"shape": {}}}}, {"name": "unknown_131", "op": "Placeholder", "attr": {"dtype": {"type": "DT_RESOURCE"}, "shape": {"shape": {}}}}, {"name": "unknown_133", "op": "Placeholder", "attr": {"shape": {"shape": {}}, "dtype": {"type": "DT_RESOURCE"}}}, {"name": "unknown_135", "op": "Placeholder", "attr": {"dtype": {"type": "DT_RESOURCE"}, "shape": {"shape": {}}}}, {"name": "unknown_137", "op": "Placeholder", "attr": {"shape": {"shape": {}}, "dtype": {"type": "DT_RESOURCE"}}}, {"name": "unknown_139", "op": "Placeholder", "attr": {"dtype": {"type": "DT_RESOURCE"}, "shape": {"shape": {}}}}, {"name": "unknown_141", "op": "Placeholder", "attr": {"shape": {"shape": {}}, "dtype": {"type": "DT_RESOURCE"}}}, {"name": "unknown_143", "op": "Placeholder", "attr": {"dtype": {"type": "DT_RESOURCE"}, "shape": {"shape": {}}}}, {"name": "unknown_145", "op": "Placeholder", "attr": {"shape": {"shape": {}}, "dtype": {"type": "DT_RESOURCE"}}}, {"name": "unknown_147", "op": "Placeholder", "attr": {"dtype": {"type": "DT_RESOURCE"}, "shape": {"shape": {}}}}, {"name": "unknown_149", "op": "Placeholder", "attr": {"shape": {"shape": {}}, "dtype": {"type": "DT_RESOURCE"}}}, {"name": "unknown_15", "op": "Placeholder", "attr": {"dtype": {"type": "DT_RESOURCE"}, "shape": {"shape": {}}}}, {"name": "unknown_151", "op": "Placeholder", "attr": {"shape": {"shape": {}}, "dtype": {"type": "DT_RESOURCE"}}}, {"name": "unknown_153", "op": "Placeholder", "attr": {"dtype": {"type": "DT_RESOURCE"}, "shape": {"shape": {}}}}, {"name": "unknown_155", "op": "Placeholder", "attr": {"shape": {"shape": {}}, "dtype": {"type": "DT_RESOURCE"}}}, {"name": "unknown_157", "op": "Placeholder", "attr": {"shape": {"shape": {}}, "dtype": {"type": "DT_RESOURCE"}}}, {"name": "unknown_159", "op": "Placeholder", "attr": {"dtype": {"type": "DT_RESOURCE"}, "shape": {"shape": {}}}}, {"name": "unknown_161", "op": "Placeholder", "attr": {"dtype": {"type": "DT_RESOURCE"}, "shape": {"shape": {}}}}, {"name": "unknown_163", "op": "Placeholder", "attr": {"dtype": {"type": "DT_RESOURCE"}, "shape": {"shape": {}}}}, {"name": "unknown_165", "op": "Placeholder", "attr": {"dtype": {"type": "DT_RESOURCE"}, "shape": {"shape": {}}}}, {"name": "unknown_167", "op": "Placeholder", "attr": {"dtype": {"type": "DT_RESOURCE"}, "shape": {"shape": {}}}}, {"name": "unknown_169", "op": "Placeholder", "attr": {"shape": {"shape": {}}, "dtype": {"type": "DT_RESOURCE"}}}, {"name": "unknown_17", "op": "Placeholder", "attr": {"shape": {"shape": {}}, "dtype": {"type": "DT_RESOURCE"}}}, {"name": "unknown_171", "op": "Placeholder", "attr": {"dtype": {"type": "DT_RESOURCE"}, "shape": {"shape": {}}}}, {"name": "unknown_173", "op": "Placeholder", "attr": {"shape": {"shape": {}}, "dtype": {"type": "DT_RESOURCE"}}}, {"name": "unknown_175", "op": "Placeholder", "attr": {"dtype": {"type": "DT_RESOURCE"}, "shape": {"shape": {}}}}, {"name": "unknown_177", "op": "Placeholder", "attr": {"shape": {"shape": {}}, "dtype": {"type": "DT_RESOURCE"}}}, {"name": "unknown_179", "op": "Placeholder", "attr": {"dtype": {"type": "DT_RESOURCE"}, "shape": {"shape": {}}}}, {"name": "unknown_181", "op": "Placeholder", "attr": {"dtype": {"type": "DT_RESOURCE"}, "shape": {"shape": {}}}}, {"name": "unknown_183", "op": "Placeholder", "attr": {"dtype": {"type": "DT_RESOURCE"}, "shape": {"shape": {}}}}, {"name": "unknown_185", "op": "Placeholder", "attr": {"shape": {"shape": {}}, "dtype": {"type": "DT_RESOURCE"}}}, {"name": "unknown_187", "op": "Placeholder", "attr": {"dtype": {"type": "DT_RESOURCE"}, "shape": {"shape": {}}}}, {"name": "unknown_189", "op": "Placeholder", "attr": {"shape": {"shape": {}}, "dtype": {"type": "DT_RESOURCE"}}}, {"name": "unknown_19", "op": "Placeholder", "attr": {"dtype": {"type": "DT_RESOURCE"}, "shape": {"shape": {}}}}, {"name": "unknown_191", "op": "Placeholder", "attr": {"shape": {"shape": {}}, "dtype": {"type": "DT_RESOURCE"}}}, {"name": "unknown_193", "op": "Placeholder", "attr": {"shape": {"shape": {}}, "dtype": {"type": "DT_RESOURCE"}}}, {"name": "unknown_195", "op": "Placeholder", "attr": {"dtype": {"type": "DT_RESOURCE"}, "shape": {"shape": {}}}}, {"name": "unknown_197", "op": "Placeholder", "attr": {"dtype": {"type": "DT_RESOURCE"}, "shape": {"shape": {}}}}, {"name": "unknown_199", "op": "Placeholder", "attr": {"shape": {"shape": {}}, "dtype": {"type": "DT_RESOURCE"}}}, {"name": "unknown_201", "op": "Placeholder", "attr": {"dtype": {"type": "DT_RESOURCE"}, "shape": {"shape": {}}}}, {"name": "unknown_203", "op": "Placeholder", "attr": {"dtype": {"type": "DT_RESOURCE"}, "shape": {"shape": {}}}}, {"name": "unknown_205", "op": "Placeholder", "attr": {"dtype": {"type": "DT_RESOURCE"}, "shape": {"shape": {}}}}, {"name": "unknown_207", "op": "Placeholder", "attr": {"shape": {"shape": {}}, "dtype": {"type": "DT_RESOURCE"}}}, {"name": "unknown_209", "op": "Placeholder", "attr": {"dtype": {"type": "DT_RESOURCE"}, "shape": {"shape": {}}}}, {"name": "unknown_21", "op": "Placeholder", "attr": {"shape": {"shape": {}}, "dtype": {"type": "DT_RESOURCE"}}}, {"name": "unknown_211", "op": "Placeholder", "attr": {"shape": {"shape": {}}, "dtype": {"type": "DT_RESOURCE"}}}, {"name": "unknown_213", "op": "Placeholder", "attr": {"dtype": {"type": "DT_RESOURCE"}, "shape": {"shape": {}}}}, {"name": "unknown_215", "op": "Placeholder", "attr": {"dtype": {"type": "DT_RESOURCE"}, "shape": {"shape": {}}}}, {"name": "unknown_217", "op": "Placeholder", "attr": {"dtype": {"type": "DT_RESOURCE"}, "shape": {"shape": {}}}}, {"name": "unknown_219", "op": "Placeholder", "attr": {"dtype": {"type": "DT_RESOURCE"}, "shape": {"shape": {}}}}, {"name": "unknown_221", "op": "Placeholder", "attr": {"dtype": {"type": "DT_RESOURCE"}, "shape": {"shape": {}}}}, {"name": "unknown_223", "op": "Placeholder", "attr": {"dtype": {"type": "DT_RESOURCE"}, "shape": {"shape": {}}}}, {"name": "unknown_225", "op": "Placeholder", "attr": {"dtype": {"type": "DT_RESOURCE"}, "shape": {"shape": {}}}}, {"name": "unknown_227", "op": "Placeholder", "attr": {"dtype": {"type": "DT_RESOURCE"}, "shape": {"shape": {}}}}, {"name": "unknown_229", "op": "Placeholder", "attr": {"shape": {"shape": {}}, "dtype": {"type": "DT_RESOURCE"}}}, {"name": "unknown_23", "op": "Placeholder", "attr": {"dtype": {"type": "DT_RESOURCE"}, "shape": {"shape": {}}}}, {"name": "unknown_231", "op": "Placeholder", "attr": {"shape": {"shape": {}}, "dtype": {"type": "DT_RESOURCE"}}}, {"name": "unknown_233", "op": "Placeholder", "attr": {"shape": {"shape": {}}, "dtype": {"type": "DT_RESOURCE"}}}, {"name": "unknown_235", "op": "Placeholder", "attr": {"shape": {"shape": {}}, "dtype": {"type": "DT_RESOURCE"}}}, {"name": "unknown_237", "op": "Placeholder", "attr": {"dtype": {"type": "DT_RESOURCE"}, "shape": {"shape": {}}}}, {"name": "unknown_239", "op": "Placeholder", "attr": {"dtype": {"type": "DT_RESOURCE"}, "shape": {"shape": {}}}}, {"name": "unknown_241", "op": "Placeholder", "attr": {"shape": {"shape": {}}, "dtype": {"type": "DT_RESOURCE"}}}, {"name": "unknown_243", "op": "Placeholder", "attr": {"dtype": {"type": "DT_RESOURCE"}, "shape": {"shape": {}}}}, {"name": "unknown_245", "op": "Placeholder", "attr": {"shape": {"shape": {}}, "dtype": {"type": "DT_RESOURCE"}}}, {"name": "unknown_247", "op": "Placeholder", "attr": {"dtype": {"type": "DT_RESOURCE"}, "shape": {"shape": {}}}}, {"name": "unknown_249", "op": "Placeholder", "attr": {"shape": {"shape": {}}, "dtype": {"type": "DT_RESOURCE"}}}, {"name": "unknown_25", "op": "Placeholder", "attr": {"dtype": {"type": "DT_RESOURCE"}, "shape": {"shape": {}}}}, {"name": "unknown_251", "op": "Placeholder", "attr": {"dtype": {"type": "DT_RESOURCE"}, "shape": {"shape": {}}}}, {"name": "unknown_253", "op": "Placeholder", "attr": {"shape": {"shape": {}}, "dtype": {"type": "DT_RESOURCE"}}}, {"name": "unknown_255", "op": "Placeholder", "attr": {"dtype": {"type": "DT_RESOURCE"}, "shape": {"shape": {}}}}, {"name": "unknown_257", "op": "Placeholder", "attr": {"shape": {"shape": {}}, "dtype": {"type": "DT_RESOURCE"}}}, {"name": "unknown_259", "op": "Placeholder", "attr": {"dtype": {"type": "DT_RESOURCE"}, "shape": {"shape": {}}}}, {"name": "unknown_261", "op": "Placeholder", "attr": {"dtype": {"type": "DT_RESOURCE"}, "shape": {"shape": {}}}}, {"name": "unknown_263", "op": "Placeholder", "attr": {"shape": {"shape": {}}, "dtype": {"type": "DT_RESOURCE"}}}, {"name": "unknown_265", "op": "Placeholder", "attr": {"dtype": {"type": "DT_RESOURCE"}, "shape": {"shape": {}}}}, {"name": "unknown_267", "op": "Placeholder", "attr": {"dtype": {"type": "DT_RESOURCE"}, "shape": {"shape": {}}}}, {"name": "unknown_269", "op": "Placeholder", "attr": {"dtype": {"type": "DT_RESOURCE"}, "shape": {"shape": {}}}}, {"name": "unknown_27", "op": "Placeholder", "attr": {"dtype": {"type": "DT_RESOURCE"}, "shape": {"shape": {}}}}, {"name": "unknown_271", "op": "Placeholder", "attr": {"shape": {"shape": {}}, "dtype": {"type": "DT_RESOURCE"}}}, {"name": "unknown_273", "op": "Placeholder", "attr": {"dtype": {"type": "DT_RESOURCE"}, "shape": {"shape": {}}}}, {"name": "unknown_275", "op": "Placeholder", "attr": {"shape": {"shape": {}}, "dtype": {"type": "DT_RESOURCE"}}}, {"name": "unknown_277", "op": "Placeholder", "attr": {"shape": {"shape": {}}, "dtype": {"type": "DT_RESOURCE"}}}, {"name": "unknown_279", "op": "Placeholder", "attr": {"shape": {"shape": {}}, "dtype": {"type": "DT_RESOURCE"}}}, {"name": "unknown_281", "op": "Placeholder", "attr": {"shape": {"shape": {}}, "dtype": {"type": "DT_RESOURCE"}}}, {"name": "unknown_283", "op": "Placeholder", "attr": {"dtype": {"type": "DT_RESOURCE"}, "shape": {"shape": {}}}}, {"name": "unknown_285", "op": "Placeholder", "attr": {"shape": {"shape": {}}, "dtype": {"type": "DT_RESOURCE"}}}, {"name": "unknown_287", "op": "Placeholder", "attr": {"dtype": {"type": "DT_RESOURCE"}, "shape": {"shape": {}}}}, {"name": "unknown_289", "op": "Placeholder", "attr": {"shape": {"shape": {}}, "dtype": {"type": "DT_RESOURCE"}}}, {"name": "unknown_29", "op": "Placeholder", "attr": {"shape": {"shape": {}}, "dtype": {"type": "DT_RESOURCE"}}}, {"name": "unknown_291", "op": "Placeholder", "attr": {"dtype": {"type": "DT_RESOURCE"}, "shape": {"shape": {}}}}, {"name": "unknown_293", "op": "Placeholder", "attr": {"shape": {"shape": {}}, "dtype": {"type": "DT_RESOURCE"}}}, {"name": "unknown_295", "op": "Placeholder", "attr": {"dtype": {"type": "DT_RESOURCE"}, "shape": {"shape": {}}}}, {"name": "unknown_297", "op": "Placeholder", "attr": {"dtype": {"type": "DT_RESOURCE"}, "shape": {"shape": {}}}}, {"name": "unknown_299", "op": "Placeholder", "attr": {"dtype": {"type": "DT_RESOURCE"}, "shape": {"shape": {}}}}, {"name": "unknown_3", "op": "Placeholder", "attr": {"shape": {"shape": {}}, "dtype": {"type": "DT_RESOURCE"}}}, {"name": "unknown_301", "op": "Placeholder", "attr": {"shape": {"shape": {}}, "dtype": {"type": "DT_RESOURCE"}}}, {"name": "unknown_303", "op": "Placeholder", "attr": {"dtype": {"type": "DT_RESOURCE"}, "shape": {"shape": {}}}}, {"name": "unknown_305", "op": "Placeholder", "attr": {"shape": {"shape": {}}, "dtype": {"type": "DT_RESOURCE"}}}, {"name": "unknown_307", "op": "Placeholder", "attr": {"shape": {"shape": {}}, "dtype": {"type": "DT_RESOURCE"}}}, {"name": "unknown_309", "op": "Placeholder", "attr": {"shape": {"shape": {}}, "dtype": {"type": "DT_RESOURCE"}}}, {"name": "unknown_31", "op": "Placeholder", "attr": {"dtype": {"type": "DT_RESOURCE"}, "shape": {"shape": {}}}}, {"name": "unknown_311", "op": "Placeholder", "attr": {"dtype": {"type": "DT_RESOURCE"}, "shape": {"shape": {}}}}, {"name": "unknown_313", "op": "Placeholder", "attr": {"dtype": {"type": "DT_RESOURCE"}, "shape": {"shape": {}}}}, {"name": "unknown_315", "op": "Placeholder", "attr": {"dtype": {"type": "DT_RESOURCE"}, "shape": {"shape": {}}}}, {"name": "unknown_317", "op": "Placeholder", "attr": {"dtype": {"type": "DT_RESOURCE"}, "shape": {"shape": {}}}}, {"name": "unknown_319", "op": "Placeholder", "attr": {"shape": {"shape": {}}, "dtype": {"type": "DT_RESOURCE"}}}, {"name": "unknown_321", "op": "Placeholder", "attr": {"dtype": {"type": "DT_RESOURCE"}, "shape": {"shape": {}}}}, {"name": "unknown_323", "op": "Placeholder", "attr": {"shape": {"shape": {}}, "dtype": {"type": "DT_RESOURCE"}}}, {"name": "unknown_325", "op": "Placeholder", "attr": {"dtype": {"type": "DT_RESOURCE"}, "shape": {"shape": {}}}}, {"name": "unknown_327", "op": "Placeholder", "attr": {"dtype": {"type": "DT_RESOURCE"}, "shape": {"shape": {}}}}, {"name": "unknown_329", "op": "Placeholder", "attr": {"shape": {"shape": {}}, "dtype": {"type": "DT_RESOURCE"}}}, {"name": "unknown_33", "op": "Placeholder", "attr": {"dtype": {"type": "DT_RESOURCE"}, "shape": {"shape": {}}}}, {"name": "unknown_331", "op": "Placeholder", "attr": {"shape": {"shape": {}}, "dtype": {"type": "DT_RESOURCE"}}}, {"name": "unknown_333", "op": "Placeholder", "attr": {"shape": {"shape": {}}, "dtype": {"type": "DT_RESOURCE"}}}, {"name": "unknown_335", "op": "Placeholder", "attr": {"dtype": {"type": "DT_RESOURCE"}, "shape": {"shape": {}}}}, {"name": "unknown_337", "op": "Placeholder", "attr": {"shape": {"shape": {}}, "dtype": {"type": "DT_RESOURCE"}}}, {"name": "unknown_339", "op": "Placeholder", "attr": {"shape": {"shape": {}}, "dtype": {"type": "DT_RESOURCE"}}}, {"name": "unknown_341", "op": "Placeholder", "attr": {"shape": {"shape": {}}, "dtype": {"type": "DT_RESOURCE"}}}, {"name": "unknown_343", "op": "Placeholder", "attr": {"shape": {"shape": {}}, "dtype": {"type": "DT_RESOURCE"}}}, {"name": "unknown_345", "op": "Placeholder", "attr": {"dtype": {"type": "DT_RESOURCE"}, "shape": {"shape": {}}}}, {"name": "unknown_347", "op": "Placeholder", "attr": {"dtype": {"type": "DT_RESOURCE"}, "shape": {"shape": {}}}}, {"name": "unknown_349", "op": "Placeholder", "attr": {"dtype": {"type": "DT_RESOURCE"}, "shape": {"shape": {}}}}, {"name": "unknown_35", "op": "Placeholder", "attr": {"dtype": {"type": "DT_RESOURCE"}, "shape": {"shape": {}}}}, {"name": "unknown_351", "op": "Placeholder", "attr": {"shape": {"shape": {}}, "dtype": {"type": "DT_RESOURCE"}}}, {"name": "unknown_353", "op": "Placeholder", "attr": {"dtype": {"type": "DT_RESOURCE"}, "shape": {"shape": {}}}}, {"name": "unknown_355", "op": "Placeholder", "attr": {"shape": {"shape": {}}, "dtype": {"type": "DT_RESOURCE"}}}, {"name": "unknown_357", "op": "Placeholder", "attr": {"shape": {"shape": {}}, "dtype": {"type": "DT_RESOURCE"}}}, {"name": "unknown_359", "op": "Placeholder", "attr": {"dtype": {"type": "DT_RESOURCE"}, "shape": {"shape": {}}}}, {"name": "unknown_361", "op": "Placeholder", "attr": {"shape": {"shape": {}}, "dtype": {"type": "DT_RESOURCE"}}}, {"name": "unknown_363", "op": "Placeholder", "attr": {"shape": {"shape": {}}, "dtype": {"type": "DT_RESOURCE"}}}, {"name": "unknown_365", "op": "Placeholder", "attr": {"dtype": {"type": "DT_RESOURCE"}, "shape": {"shape": {}}}}, {"name": "unknown_367", "op": "Placeholder", "attr": {"shape": {"shape": {}}, "dtype": {"type": "DT_RESOURCE"}}}, {"name": "unknown_369", "op": "Placeholder", "attr": {"shape": {"shape": {}}, "dtype": {"type": "DT_RESOURCE"}}}, {"name": "unknown_37", "op": "Placeholder", "attr": {"shape": {"shape": {}}, "dtype": {"type": "DT_RESOURCE"}}}, {"name": "unknown_371", "op": "Placeholder", "attr": {"dtype": {"type": "DT_RESOURCE"}, "shape": {"shape": {}}}}, {"name": "unknown_373", "op": "Placeholder", "attr": {"shape": {"shape": {}}, "dtype": {"type": "DT_RESOURCE"}}}, {"name": "unknown_375", "op": "Placeholder", "attr": {"dtype": {"type": "DT_RESOURCE"}, "shape": {"shape": {}}}}, {"name": "unknown_377", "op": "Placeholder", "attr": {"shape": {"shape": {}}, "dtype": {"type": "DT_RESOURCE"}}}, {"name": "unknown_379", "op": "Placeholder", "attr": {"shape": {"shape": {}}, "dtype": {"type": "DT_RESOURCE"}}}, {"name": "unknown_381", "op": "Placeholder", "attr": {"dtype": {"type": "DT_RESOURCE"}, "shape": {"shape": {}}}}, {"name": "unknown_383", "op": "Placeholder", "attr": {"dtype": {"type": "DT_RESOURCE"}, "shape": {"shape": {}}}}, {"name": "unknown_39", "op": "Placeholder", "attr": {"dtype": {"type": "DT_RESOURCE"}, "shape": {"shape": {}}}}, {"name": "unknown_41", "op": "Placeholder", "attr": {"shape": {"shape": {}}, "dtype": {"type": "DT_RESOURCE"}}}, {"name": "unknown_43", "op": "Placeholder", "attr": {"shape": {"shape": {}}, "dtype": {"type": "DT_RESOURCE"}}}, {"name": "unknown_45", "op": "Placeholder", "attr": {"dtype": {"type": "DT_RESOURCE"}, "shape": {"shape": {}}}}, {"name": "unknown_47", "op": "Placeholder", "attr": {"dtype": {"type": "DT_RESOURCE"}, "shape": {"shape": {}}}}, {"name": "unknown_49", "op": "Placeholder", "attr": {"shape": {"shape": {}}, "dtype": {"type": "DT_RESOURCE"}}}, {"name": "unknown_5", "op": "Placeholder", "attr": {"dtype": {"type": "DT_RESOURCE"}, "shape": {"shape": {}}}}, {"name": "unknown_51", "op": "Placeholder", "attr": {"dtype": {"type": "DT_RESOURCE"}, "shape": {"shape": {}}}}, {"name": "unknown_53", "op": "Placeholder", "attr": {"shape": {"shape": {}}, "dtype": {"type": "DT_RESOURCE"}}}, {"name": "unknown_55", "op": "Placeholder", "attr": {"dtype": {"type": "DT_RESOURCE"}, "shape": {"shape": {}}}}, {"name": "unknown_57", "op": "Placeholder", "attr": {"shape": {"shape": {}}, "dtype": {"type": "DT_RESOURCE"}}}, {"name": "unknown_59", "op": "Placeholder", "attr": {"dtype": {"type": "DT_RESOURCE"}, "shape": {"shape": {}}}}, {"name": "unknown_61", "op": "Placeholder", "attr": {"shape": {"shape": {}}, "dtype": {"type": "DT_RESOURCE"}}}, {"name": "unknown_63", "op": "Placeholder", "attr": {"shape": {"shape": {}}, "dtype": {"type": "DT_RESOURCE"}}}, {"name": "unknown_65", "op": "Placeholder", "attr": {"dtype": {"type": "DT_RESOURCE"}, "shape": {"shape": {}}}}, {"name": "unknown_67", "op": "Placeholder", "attr": {"dtype": {"type": "DT_RESOURCE"}, "shape": {"shape": {}}}}, {"name": "unknown_69", "op": "Placeholder", "attr": {"dtype": {"type": "DT_RESOURCE"}, "shape": {"shape": {}}}}, {"name": "unknown_7", "op": "Placeholder", "attr": {"dtype": {"type": "DT_RESOURCE"}, "shape": {"shape": {}}}}, {"name": "unknown_71", "op": "Placeholder", "attr": {"dtype": {"type": "DT_RESOURCE"}, "shape": {"shape": {}}}}, {"name": "unknown_73", "op": "Placeholder", "attr": {"dtype": {"type": "DT_RESOURCE"}, "shape": {"shape": {}}}}, {"name": "unknown_75", "op": "Placeholder", "attr": {"dtype": {"type": "DT_RESOURCE"}, "shape": {"shape": {}}}}, {"name": "unknown_77", "op": "Placeholder", "attr": {"shape": {"shape": {}}, "dtype": {"type": "DT_RESOURCE"}}}, {"name": "unknown_79", "op": "Placeholder", "attr": {"dtype": {"type": "DT_RESOURCE"}, "shape": {"shape": {}}}}, {"name": "unknown_81", "op": "Placeholder", "attr": {"dtype": {"type": "DT_RESOURCE"}, "shape": {"shape": {}}}}, {"name": "unknown_83", "op": "Placeholder", "attr": {"shape": {"shape": {}}, "dtype": {"type": "DT_RESOURCE"}}}, {"name": "unknown_85", "op": "Placeholder", "attr": {"shape": {"shape": {}}, "dtype": {"type": "DT_RESOURCE"}}}, {"name": "unknown_87", "op": "Placeholder", "attr": {"dtype": {"type": "DT_RESOURCE"}, "shape": {"shape": {}}}}, {"name": "unknown_89", "op": "Placeholder", "attr": {"shape": {"shape": {}}, "dtype": {"type": "DT_RESOURCE"}}}, {"name": "unknown_9", "op": "Placeholder", "attr": {"dtype": {"type": "DT_RESOURCE"}, "shape": {"shape": {}}}}, {"name": "unknown_91", "op": "Placeholder", "attr": {"dtype": {"type": "DT_RESOURCE"}, "shape": {"shape": {}}}}, {"name": "unknown_93", "op": "Placeholder", "attr": {"shape": {"shape": {}}, "dtype": {"type": "DT_RESOURCE"}}}, {"name": "unknown_95", "op": "Placeholder", "attr": {"shape": {"shape": {}}, "dtype": {"type": "DT_RESOURCE"}}}, {"name": "unknown_97", "op": "Placeholder", "attr": {"shape": {"shape": {}}, "dtype": {"type": "DT_RESOURCE"}}}, {"name": "unknown_99", "op": "Placeholder", "attr": {"dtype": {"type": "DT_RESOURCE"}, "shape": {"shape": {}}}}, {"name": "StatefulPartitionedCall/model_1/integer_lookup_257/Cast", "op": "Cast", "input": ["colour_to_move"], "attr": {"DstT": {"type": "DT_INT64"}, "SrcT": {"type": "DT_DOUBLE"}, "Truncate": {"b": false}}}, {"name": "StatefulPartitionedCall/model_1/integer_lookup_129/Cast", "op": "Cast", "input": ["from_a1"], "attr": {"DstT": {"type": "DT_INT64"}, "Truncate": {"b": false}, "SrcT": {"type": "DT_DOUBLE"}}}, {"name": "StatefulPartitionedCall/model_1/integer_lookup_137/Cast", "op": "Cast", "input": ["from_a2"], "attr": {"DstT": {"type": "DT_INT64"}, "SrcT": {"type": "DT_DOUBLE"}, "Truncate": {"b": false}}}, {"name": "StatefulPartitionedCall/model_1/integer_lookup_145/Cast", "op": "Cast", "input": ["from_a3"], "attr": {"SrcT": {"type": "DT_DOUBLE"}, "DstT": {"type": "DT_INT64"}, "Truncate": {"b": false}}}, {"name": "StatefulPartitionedCall/model_1/integer_lookup_153/Cast", "op": "Cast", "input": ["from_a4"], "attr": {"SrcT": {"type": "DT_DOUBLE"}, "DstT": {"type": "DT_INT64"}, "Truncate": {"b": false}}}, {"name": "StatefulPartitionedCall/model_1/integer_lookup_161/Cast", "op": "Cast", "input": ["from_a5"], "attr": {"Truncate": {"b": false}, "DstT": {"type": "DT_INT64"}, "SrcT": {"type": "DT_DOUBLE"}}}, {"name": "StatefulPartitionedCall/model_1/integer_lookup_169/Cast", "op": "Cast", "input": ["from_a6"], "attr": {"Truncate": {"b": false}, "SrcT": {"type": "DT_DOUBLE"}, "DstT": {"type": "DT_INT64"}}}, {"name": "StatefulPartitionedCall/model_1/integer_lookup_177/Cast", "op": "Cast", "input": ["from_a7"], "attr": {"DstT": {"type": "DT_INT64"}, "SrcT": {"type": "DT_DOUBLE"}, "Truncate": {"b": false}}}, {"name": "StatefulPartitionedCall/model_1/integer_lookup_185/Cast", "op": "Cast", "input": ["from_a8"], "attr": {"DstT": {"type": "DT_INT64"}, "Truncate": {"b": false}, "SrcT": {"type": "DT_DOUBLE"}}}, {"name": "StatefulPartitionedCall/model_1/integer_lookup_130/Cast", "op": "Cast", "input": ["from_b1"], "attr": {"SrcT": {"type": "DT_DOUBLE"}, "DstT": {"type": "DT_INT64"}, "Truncate": {"b": false}}}, {"name": "StatefulPartitionedCall/model_1/integer_lookup_138/Cast", "op": "Cast", "input": ["from_b2"], "attr": {"Truncate": {"b": false}, "SrcT": {"type": "DT_DOUBLE"}, "DstT": {"type": "DT_INT64"}}}, {"name": "StatefulPartitionedCall/model_1/integer_lookup_146/Cast", "op": "Cast", "input": ["from_b3"], "attr": {"Truncate": {"b": false}, "SrcT": {"type": "DT_DOUBLE"}, "DstT": {"type": "DT_INT64"}}}, {"name": "StatefulPartitionedCall/model_1/integer_lookup_154/Cast", "op": "Cast", "input": ["from_b4"], "attr": {"DstT": {"type": "DT_INT64"}, "SrcT": {"type": "DT_DOUBLE"}, "Truncate": {"b": false}}}, {"name": "StatefulPartitionedCall/model_1/integer_lookup_162/Cast", "op": "Cast", "input": ["from_b5"], "attr": {"DstT": {"type": "DT_INT64"}, "Truncate": {"b": false}, "SrcT": {"type": "DT_DOUBLE"}}}, {"name": "StatefulPartitionedCall/model_1/integer_lookup_170/Cast", "op": "Cast", "input": ["from_b6"], "attr": {"SrcT": {"type": "DT_DOUBLE"}, "Truncate": {"b": false}, "DstT": {"type": "DT_INT64"}}}, {"name": "StatefulPartitionedCall/model_1/integer_lookup_178/Cast", "op": "Cast", "input": ["from_b7"], "attr": {"Truncate": {"b": false}, "DstT": {"type": "DT_INT64"}, "SrcT": {"type": "DT_DOUBLE"}}}, {"name": "StatefulPartitionedCall/model_1/integer_lookup_186/Cast", "op": "Cast", "input": ["from_b8"], "attr": {"SrcT": {"type": "DT_DOUBLE"}, "DstT": {"type": "DT_INT64"}, "Truncate": {"b": false}}}, {"name": "StatefulPartitionedCall/model_1/integer_lookup_131/Cast", "op": "Cast", "input": ["from_c1"], "attr": {"Truncate": {"b": false}, "DstT": {"type": "DT_INT64"}, "SrcT": {"type": "DT_DOUBLE"}}}, {"name": "StatefulPartitionedCall/model_1/integer_lookup_139/Cast", "op": "Cast", "input": ["from_c2"], "attr": {"DstT": {"type": "DT_INT64"}, "SrcT": {"type": "DT_DOUBLE"}, "Truncate": {"b": false}}}, {"name": "StatefulPartitionedCall/model_1/integer_lookup_147/Cast", "op": "Cast", "input": ["from_c3"], "attr": {"DstT": {"type": "DT_INT64"}, "SrcT": {"type": "DT_DOUBLE"}, "Truncate": {"b": false}}}, {"name": "StatefulPartitionedCall/model_1/integer_lookup_155/Cast", "op": "Cast", "input": ["from_c4"], "attr": {"Truncate": {"b": false}, "DstT": {"type": "DT_INT64"}, "SrcT": {"type": "DT_DOUBLE"}}}, {"name": "StatefulPartitionedCall/model_1/integer_lookup_163/Cast", "op": "Cast", "input": ["from_c5"], "attr": {"SrcT": {"type": "DT_DOUBLE"}, "Truncate": {"b": false}, "DstT": {"type": "DT_INT64"}}}, {"name": "StatefulPartitionedCall/model_1/integer_lookup_171/Cast", "op": "Cast", "input": ["from_c6"], "attr": {"SrcT": {"type": "DT_DOUBLE"}, "Truncate": {"b": false}, "DstT": {"type": "DT_INT64"}}}, {"name": "StatefulPartitionedCall/model_1/integer_lookup_179/Cast", "op": "Cast", "input": ["from_c7"], "attr": {"Truncate": {"b": false}, "SrcT": {"type": "DT_DOUBLE"}, "DstT": {"type": "DT_INT64"}}}, {"name": "StatefulPartitionedCall/model_1/integer_lookup_187/Cast", "op": "Cast", "input": ["from_c8"], "attr": {"DstT": {"type": "DT_INT64"}, "Truncate": {"b": false}, "SrcT": {"type": "DT_DOUBLE"}}}, {"name": "StatefulPartitionedCall/model_1/integer_lookup_132/Cast", "op": "Cast", "input": ["from_d1"], "attr": {"SrcT": {"type": "DT_DOUBLE"}, "Truncate": {"b": false}, "DstT": {"type": "DT_INT64"}}}, {"name": "StatefulPartitionedCall/model_1/integer_lookup_140/Cast", "op": "Cast", "input": ["from_d2"], "attr": {"SrcT": {"type": "DT_DOUBLE"}, "Truncate": {"b": false}, "DstT": {"type": "DT_INT64"}}}, {"name": "StatefulPartitionedCall/model_1/integer_lookup_148/Cast", "op": "Cast", "input": ["from_d3"], "attr": {"SrcT": {"type": "DT_DOUBLE"}, "DstT": {"type": "DT_INT64"}, "Truncate": {"b": false}}}, {"name": "StatefulPartitionedCall/model_1/integer_lookup_156/Cast", "op": "Cast", "input": ["from_d4"], "attr": {"Truncate": {"b": false}, "DstT": {"type": "DT_INT64"}, "SrcT": {"type": "DT_DOUBLE"}}}, {"name": "StatefulPartitionedCall/model_1/integer_lookup_164/Cast", "op": "Cast", "input": ["from_d5"], "attr": {"SrcT": {"type": "DT_DOUBLE"}, "DstT": {"type": "DT_INT64"}, "Truncate": {"b": false}}}, {"name": "StatefulPartitionedCall/model_1/integer_lookup_172/Cast", "op": "Cast", "input": ["from_d6"], "attr": {"SrcT": {"type": "DT_DOUBLE"}, "DstT": {"type": "DT_INT64"}, "Truncate": {"b": false}}}, {"name": "StatefulPartitionedCall/model_1/integer_lookup_180/Cast", "op": "Cast", "input": ["from_d7"], "attr": {"DstT": {"type": "DT_INT64"}, "Truncate": {"b": false}, "SrcT": {"type": "DT_DOUBLE"}}}, {"name": "StatefulPartitionedCall/model_1/integer_lookup_188/Cast", "op": "Cast", "input": ["from_d8"], "attr": {"Truncate": {"b": false}, "DstT": {"type": "DT_INT64"}, "SrcT": {"type": "DT_DOUBLE"}}}, {"name": "StatefulPartitionedCall/model_1/integer_lookup_133/Cast", "op": "Cast", "input": ["from_e1"], "attr": {"DstT": {"type": "DT_INT64"}, "Truncate": {"b": false}, "SrcT": {"type": "DT_DOUBLE"}}}, {"name": "StatefulPartitionedCall/model_1/integer_lookup_141/Cast", "op": "Cast", "input": ["from_e2"], "attr": {"SrcT": {"type": "DT_DOUBLE"}, "DstT": {"type": "DT_INT64"}, "Truncate": {"b": false}}}, {"name": "StatefulPartitionedCall/model_1/integer_lookup_149/Cast", "op": "Cast", "input": ["from_e3"], "attr": {"DstT": {"type": "DT_INT64"}, "SrcT": {"type": "DT_DOUBLE"}, "Truncate": {"b": false}}}, {"name": "StatefulPartitionedCall/model_1/integer_lookup_157/Cast", "op": "Cast", "input": ["from_e4"], "attr": {"Truncate": {"b": false}, "SrcT": {"type": "DT_DOUBLE"}, "DstT": {"type": "DT_INT64"}}}, {"name": "StatefulPartitionedCall/model_1/integer_lookup_165/Cast", "op": "Cast", "input": ["from_e5"], "attr": {"SrcT": {"type": "DT_DOUBLE"}, "Truncate": {"b": false}, "DstT": {"type": "DT_INT64"}}}, {"name": "StatefulPartitionedCall/model_1/integer_lookup_173/Cast", "op": "Cast", "input": ["from_e6"], "attr": {"DstT": {"type": "DT_INT64"}, "SrcT": {"type": "DT_DOUBLE"}, "Truncate": {"b": false}}}, {"name": "StatefulPartitionedCall/model_1/integer_lookup_181/Cast", "op": "Cast", "input": ["from_e7"], "attr": {"SrcT": {"type": "DT_DOUBLE"}, "Truncate": {"b": false}, "DstT": {"type": "DT_INT64"}}}, {"name": "StatefulPartitionedCall/model_1/integer_lookup_189/Cast", "op": "Cast", "input": ["from_e8"], "attr": {"DstT": {"type": "DT_INT64"}, "SrcT": {"type": "DT_DOUBLE"}, "Truncate": {"b": false}}}, {"name": "StatefulPartitionedCall/model_1/integer_lookup_134/Cast", "op": "Cast", "input": ["from_f1"], "attr": {"SrcT": {"type": "DT_DOUBLE"}, "Truncate": {"b": false}, "DstT": {"type": "DT_INT64"}}}, {"name": "StatefulPartitionedCall/model_1/integer_lookup_142/Cast", "op": "Cast", "input": ["from_f2"], "attr": {"DstT": {"type": "DT_INT64"}, "Truncate": {"b": false}, "SrcT": {"type": "DT_DOUBLE"}}}, {"name": "StatefulPartitionedCall/model_1/integer_lookup_150/Cast", "op": "Cast", "input": ["from_f3"], "attr": {"SrcT": {"type": "DT_DOUBLE"}, "DstT": {"type": "DT_INT64"}, "Truncate": {"b": false}}}, {"name": "StatefulPartitionedCall/model_1/integer_lookup_158/Cast", "op": "Cast", "input": ["from_f4"], "attr": {"Truncate": {"b": false}, "DstT": {"type": "DT_INT64"}, "SrcT": {"type": "DT_DOUBLE"}}}, {"name": "StatefulPartitionedCall/model_1/integer_lookup_166/Cast", "op": "Cast", "input": ["from_f5"], "attr": {"SrcT": {"type": "DT_DOUBLE"}, "Truncate": {"b": false}, "DstT": {"type": "DT_INT64"}}}, {"name": "StatefulPartitionedCall/model_1/integer_lookup_174/Cast", "op": "Cast", "input": ["from_f6"], "attr": {"Truncate": {"b": false}, "SrcT": {"type": "DT_DOUBLE"}, "DstT": {"type": "DT_INT64"}}}, {"name": "StatefulPartitionedCall/model_1/integer_lookup_182/Cast", "op": "Cast", "input": ["from_f7"], "attr": {"DstT": {"type": "DT_INT64"}, "Truncate": {"b": false}, "SrcT": {"type": "DT_DOUBLE"}}}, {"name": "StatefulPartitionedCall/model_1/integer_lookup_190/Cast", "op": "Cast", "input": ["from_f8"], "attr": {"Truncate": {"b": false}, "SrcT": {"type": "DT_DOUBLE"}, "DstT": {"type": "DT_INT64"}}}, {"name": "StatefulPartitionedCall/model_1/integer_lookup_135/Cast", "op": "Cast", "input": ["from_g1"], "attr": {"DstT": {"type": "DT_INT64"}, "SrcT": {"type": "DT_DOUBLE"}, "Truncate": {"b": false}}}, {"name": "StatefulPartitionedCall/model_1/integer_lookup_143/Cast", "op": "Cast", "input": ["from_g2"], "attr": {"DstT": {"type": "DT_INT64"}, "SrcT": {"type": "DT_DOUBLE"}, "Truncate": {"b": false}}}, {"name": "StatefulPartitionedCall/model_1/integer_lookup_151/Cast", "op": "Cast", "input": ["from_g3"], "attr": {"DstT": {"type": "DT_INT64"}, "Truncate": {"b": false}, "SrcT": {"type": "DT_DOUBLE"}}}, {"name": "StatefulPartitionedCall/model_1/integer_lookup_159/Cast", "op": "Cast", "input": ["from_g4"], "attr": {"DstT": {"type": "DT_INT64"}, "Truncate": {"b": false}, "SrcT": {"type": "DT_DOUBLE"}}}, {"name": "StatefulPartitionedCall/model_1/integer_lookup_167/Cast", "op": "Cast", "input": ["from_g5"], "attr": {"DstT": {"type": "DT_INT64"}, "Truncate": {"b": false}, "SrcT": {"type": "DT_DOUBLE"}}}, {"name": "StatefulPartitionedCall/model_1/integer_lookup_175/Cast", "op": "Cast", "input": ["from_g6"], "attr": {"DstT": {"type": "DT_INT64"}, "Truncate": {"b": false}, "SrcT": {"type": "DT_DOUBLE"}}}, {"name": "StatefulPartitionedCall/model_1/integer_lookup_183/Cast", "op": "Cast", "input": ["from_g7"], "attr": {"Truncate": {"b": false}, "SrcT": {"type": "DT_DOUBLE"}, "DstT": {"type": "DT_INT64"}}}, {"name": "StatefulPartitionedCall/model_1/integer_lookup_191/Cast", "op": "Cast", "input": ["from_g8"], "attr": {"DstT": {"type": "DT_INT64"}, "Truncate": {"b": false}, "SrcT": {"type": "DT_DOUBLE"}}}, {"name": "StatefulPartitionedCall/model_1/integer_lookup_136/Cast", "op": "Cast", "input": ["from_h1"], "attr": {"SrcT": {"type": "DT_DOUBLE"}, "DstT": {"type": "DT_INT64"}, "Truncate": {"b": false}}}, {"name": "StatefulPartitionedCall/model_1/integer_lookup_144/Cast", "op": "Cast", "input": ["from_h2"], "attr": {"Truncate": {"b": false}, "DstT": {"type": "DT_INT64"}, "SrcT": {"type": "DT_DOUBLE"}}}, {"name": "StatefulPartitionedCall/model_1/integer_lookup_152/Cast", "op": "Cast", "input": ["from_h3"], "attr": {"Truncate": {"b": false}, "DstT": {"type": "DT_INT64"}, "SrcT": {"type": "DT_DOUBLE"}}}, {"name": "StatefulPartitionedCall/model_1/integer_lookup_160/Cast", "op": "Cast", "input": ["from_h4"], "attr": {"Truncate": {"b": false}, "DstT": {"type": "DT_INT64"}, "SrcT": {"type": "DT_DOUBLE"}}}, {"name": "StatefulPartitionedCall/model_1/integer_lookup_168/Cast", "op": "Cast", "input": ["from_h5"], "attr": {"SrcT": {"type": "DT_DOUBLE"}, "DstT": {"type": "DT_INT64"}, "Truncate": {"b": false}}}, {"name": "StatefulPartitionedCall/model_1/integer_lookup_176/Cast", "op": "Cast", "input": ["from_h6"], "attr": {"SrcT": {"type": "DT_DOUBLE"}, "DstT": {"type": "DT_INT64"}, "Truncate": {"b": false}}}, {"name": "StatefulPartitionedCall/model_1/integer_lookup_184/Cast", "op": "Cast", "input": ["from_h7"], "attr": {"DstT": {"type": "DT_INT64"}, "Truncate": {"b": false}, "SrcT": {"type": "DT_DOUBLE"}}}, {"name": "StatefulPartitionedCall/model_1/integer_lookup_192/Cast", "op": "Cast", "input": ["from_h8"], "attr": {"SrcT": {"type": "DT_DOUBLE"}, "Truncate": {"b": false}, "DstT": {"type": "DT_INT64"}}}, {"name": "StatefulPartitionedCall/model_1/integer_lookup_193/Cast", "op": "Cast", "input": ["to_a1"], "attr": {"Truncate": {"b": false}, "SrcT": {"type": "DT_DOUBLE"}, "DstT": {"type": "DT_INT64"}}}, {"name": "StatefulPartitionedCall/model_1/integer_lookup_201/Cast", "op": "Cast", "input": ["to_a2"], "attr": {"Truncate": {"b": false}, "SrcT": {"type": "DT_DOUBLE"}, "DstT": {"type": "DT_INT64"}}}, {"name": "StatefulPartitionedCall/model_1/integer_lookup_209/Cast", "op": "Cast", "input": ["to_a3"], "attr": {"SrcT": {"type": "DT_DOUBLE"}, "DstT": {"type": "DT_INT64"}, "Truncate": {"b": false}}}, {"name": "StatefulPartitionedCall/model_1/integer_lookup_217/Cast", "op": "Cast", "input": ["to_a4"], "attr": {"DstT": {"type": "DT_INT64"}, "SrcT": {"type": "DT_DOUBLE"}, "Truncate": {"b": false}}}, {"name": "StatefulPartitionedCall/model_1/integer_lookup_225/Cast", "op": "Cast", "input": ["to_a5"], "attr": {"DstT": {"type": "DT_INT64"}, "SrcT": {"type": "DT_DOUBLE"}, "Truncate": {"b": false}}}, {"name": "StatefulPartitionedCall/model_1/integer_lookup_233/Cast", "op": "Cast", "input": ["to_a6"], "attr": {"Truncate": {"b": false}, "DstT": {"type": "DT_INT64"}, "SrcT": {"type": "DT_DOUBLE"}}}, {"name": "StatefulPartitionedCall/model_1/integer_lookup_241/Cast", "op": "Cast", "input": ["to_a7"], "attr": {"DstT": {"type": "DT_INT64"}, "Truncate": {"b": false}, "SrcT": {"type": "DT_DOUBLE"}}}, {"name": "StatefulPartitionedCall/model_1/integer_lookup_249/Cast", "op": "Cast", "input": ["to_a8"], "attr": {"DstT": {"type": "DT_INT64"}, "Truncate": {"b": false}, "SrcT": {"type": "DT_DOUBLE"}}}, {"name": "StatefulPartitionedCall/model_1/integer_lookup_194/Cast", "op": "Cast", "input": ["to_b1"], "attr": {"DstT": {"type": "DT_INT64"}, "Truncate": {"b": false}, "SrcT": {"type": "DT_DOUBLE"}}}, {"name": "StatefulPartitionedCall/model_1/integer_lookup_202/Cast", "op": "Cast", "input": ["to_b2"], "attr": {"Truncate": {"b": false}, "SrcT": {"type": "DT_DOUBLE"}, "DstT": {"type": "DT_INT64"}}}, {"name": "StatefulPartitionedCall/model_1/integer_lookup_210/Cast", "op": "Cast", "input": ["to_b3"], "attr": {"SrcT": {"type": "DT_DOUBLE"}, "Truncate": {"b": false}, "DstT": {"type": "DT_INT64"}}}, {"name": "StatefulPartitionedCall/model_1/integer_lookup_218/Cast", "op": "Cast", "input": ["to_b4"], "attr": {"SrcT": {"type": "DT_DOUBLE"}, "DstT": {"type": "DT_INT64"}, "Truncate": {"b": false}}}, {"name": "StatefulPartitionedCall/model_1/integer_lookup_226/Cast", "op": "Cast", "input": ["to_b5"], "attr": {"DstT": {"type": "DT_INT64"}, "Truncate": {"b": false}, "SrcT": {"type": "DT_DOUBLE"}}}, {"name": "StatefulPartitionedCall/model_1/integer_lookup_234/Cast", "op": "Cast", "input": ["to_b6"], "attr": {"DstT": {"type": "DT_INT64"}, "SrcT": {"type": "DT_DOUBLE"}, "Truncate": {"b": false}}}, {"name": "StatefulPartitionedCall/model_1/integer_lookup_242/Cast", "op": "Cast", "input": ["to_b7"], "attr": {"SrcT": {"type": "DT_DOUBLE"}, "Truncate": {"b": false}, "DstT": {"type": "DT_INT64"}}}, {"name": "StatefulPartitionedCall/model_1/integer_lookup_250/Cast", "op": "Cast", "input": ["to_b8"], "attr": {"DstT": {"type": "DT_INT64"}, "Truncate": {"b": false}, "SrcT": {"type": "DT_DOUBLE"}}}, {"name": "StatefulPartitionedCall/model_1/integer_lookup_195/Cast", "op": "Cast", "input": ["to_c1"], "attr": {"Truncate": {"b": false}, "SrcT": {"type": "DT_DOUBLE"}, "DstT": {"type": "DT_INT64"}}}, {"name": "StatefulPartitionedCall/model_1/integer_lookup_203/Cast", "op": "Cast", "input": ["to_c2"], "attr": {"Truncate": {"b": false}, "SrcT": {"type": "DT_DOUBLE"}, "DstT": {"type": "DT_INT64"}}}, {"name": "StatefulPartitionedCall/model_1/integer_lookup_211/Cast", "op": "Cast", "input": ["to_c3"], "attr": {"DstT": {"type": "DT_INT64"}, "Truncate": {"b": false}, "SrcT": {"type": "DT_DOUBLE"}}}, {"name": "StatefulPartitionedCall/model_1/integer_lookup_219/Cast", "op": "Cast", "input": ["to_c4"], "attr": {"DstT": {"type": "DT_INT64"}, "Truncate": {"b": false}, "SrcT": {"type": "DT_DOUBLE"}}}, {"name": "StatefulPartitionedCall/model_1/integer_lookup_227/Cast", "op": "Cast", "input": ["to_c5"], "attr": {"SrcT": {"type": "DT_DOUBLE"}, "DstT": {"type": "DT_INT64"}, "Truncate": {"b": false}}}, {"name": "StatefulPartitionedCall/model_1/integer_lookup_235/Cast", "op": "Cast", "input": ["to_c6"], "attr": {"DstT": {"type": "DT_INT64"}, "Truncate": {"b": false}, "SrcT": {"type": "DT_DOUBLE"}}}, {"name": "StatefulPartitionedCall/model_1/integer_lookup_243/Cast", "op": "Cast", "input": ["to_c7"], "attr": {"Truncate": {"b": false}, "SrcT": {"type": "DT_DOUBLE"}, "DstT": {"type": "DT_INT64"}}}, {"name": "StatefulPartitionedCall/model_1/integer_lookup_251/Cast", "op": "Cast", "input": ["to_c8"], "attr": {"SrcT": {"type": "DT_DOUBLE"}, "DstT": {"type": "DT_INT64"}, "Truncate": {"b": false}}}, {"name": "StatefulPartitionedCall/model_1/integer_lookup_196/Cast", "op": "Cast", "input": ["to_d1"], "attr": {"DstT": {"type": "DT_INT64"}, "SrcT": {"type": "DT_DOUBLE"}, "Truncate": {"b": false}}}, {"name": "StatefulPartitionedCall/model_1/integer_lookup_204/Cast", "op": "Cast", "input": ["to_d2"], "attr": {"DstT": {"type": "DT_INT64"}, "SrcT": {"type": "DT_DOUBLE"}, "Truncate": {"b": false}}}, {"name": "StatefulPartitionedCall/model_1/integer_lookup_212/Cast", "op": "Cast", "input": ["to_d3"], "attr": {"DstT": {"type": "DT_INT64"}, "SrcT": {"type": "DT_DOUBLE"}, "Truncate": {"b": false}}}, {"name": "StatefulPartitionedCall/model_1/integer_lookup_220/Cast", "op": "Cast", "input": ["to_d4"], "attr": {"SrcT": {"type": "DT_DOUBLE"}, "Truncate": {"b": false}, "DstT": {"type": "DT_INT64"}}}, {"name": "StatefulPartitionedCall/model_1/integer_lookup_228/Cast", "op": "Cast", "input": ["to_d5"], "attr": {"Truncate": {"b": false}, "DstT": {"type": "DT_INT64"}, "SrcT": {"type": "DT_DOUBLE"}}}, {"name": "StatefulPartitionedCall/model_1/integer_lookup_236/Cast", "op": "Cast", "input": ["to_d6"], "attr": {"Truncate": {"b": false}, "SrcT": {"type": "DT_DOUBLE"}, "DstT": {"type": "DT_INT64"}}}, {"name": "StatefulPartitionedCall/model_1/integer_lookup_244/Cast", "op": "Cast", "input": ["to_d7"], "attr": {"SrcT": {"type": "DT_DOUBLE"}, "DstT": {"type": "DT_INT64"}, "Truncate": {"b": false}}}, {"name": "StatefulPartitionedCall/model_1/integer_lookup_252/Cast", "op": "Cast", "input": ["to_d8"], "attr": {"Truncate": {"b": false}, "SrcT": {"type": "DT_DOUBLE"}, "DstT": {"type": "DT_INT64"}}}, {"name": "StatefulPartitionedCall/model_1/integer_lookup_197/Cast", "op": "Cast", "input": ["to_e1"], "attr": {"Truncate": {"b": false}, "DstT": {"type": "DT_INT64"}, "SrcT": {"type": "DT_DOUBLE"}}}, {"name": "StatefulPartitionedCall/model_1/integer_lookup_205/Cast", "op": "Cast", "input": ["to_e2"], "attr": {"Truncate": {"b": false}, "DstT": {"type": "DT_INT64"}, "SrcT": {"type": "DT_DOUBLE"}}}, {"name": "StatefulPartitionedCall/model_1/integer_lookup_213/Cast", "op": "Cast", "input": ["to_e3"], "attr": {"SrcT": {"type": "DT_DOUBLE"}, "DstT": {"type": "DT_INT64"}, "Truncate": {"b": false}}}, {"name": "StatefulPartitionedCall/model_1/integer_lookup_221/Cast", "op": "Cast", "input": ["to_e4"], "attr": {"DstT": {"type": "DT_INT64"}, "Truncate": {"b": false}, "SrcT": {"type": "DT_DOUBLE"}}}, {"name": "StatefulPartitionedCall/model_1/integer_lookup_229/Cast", "op": "Cast", "input": ["to_e5"], "attr": {"DstT": {"type": "DT_INT64"}, "Truncate": {"b": false}, "SrcT": {"type": "DT_DOUBLE"}}}, {"name": "StatefulPartitionedCall/model_1/integer_lookup_237/Cast", "op": "Cast", "input": ["to_e6"], "attr": {"Truncate": {"b": false}, "DstT": {"type": "DT_INT64"}, "SrcT": {"type": "DT_DOUBLE"}}}, {"name": "StatefulPartitionedCall/model_1/integer_lookup_245/Cast", "op": "Cast", "input": ["to_e7"], "attr": {"DstT": {"type": "DT_INT64"}, "Truncate": {"b": false}, "SrcT": {"type": "DT_DOUBLE"}}}, {"name": "StatefulPartitionedCall/model_1/integer_lookup_253/Cast", "op": "Cast", "input": ["to_e8"], "attr": {"Truncate": {"b": false}, "SrcT": {"type": "DT_DOUBLE"}, "DstT": {"type": "DT_INT64"}}}, {"name": "StatefulPartitionedCall/model_1/integer_lookup_198/Cast", "op": "Cast", "input": ["to_f1"], "attr": {"DstT": {"type": "DT_INT64"}, "Truncate": {"b": false}, "SrcT": {"type": "DT_DOUBLE"}}}, {"name": "StatefulPartitionedCall/model_1/integer_lookup_206/Cast", "op": "Cast", "input": ["to_f2"], "attr": {"SrcT": {"type": "DT_DOUBLE"}, "DstT": {"type": "DT_INT64"}, "Truncate": {"b": false}}}, {"name": "StatefulPartitionedCall/model_1/integer_lookup_214/Cast", "op": "Cast", "input": ["to_f3"], "attr": {"Truncate": {"b": false}, "SrcT": {"type": "DT_DOUBLE"}, "DstT": {"type": "DT_INT64"}}}, {"name": "StatefulPartitionedCall/model_1/integer_lookup_222/Cast", "op": "Cast", "input": ["to_f4"], "attr": {"Truncate": {"b": false}, "DstT": {"type": "DT_INT64"}, "SrcT": {"type": "DT_DOUBLE"}}}, {"name": "StatefulPartitionedCall/model_1/integer_lookup_230/Cast", "op": "Cast", "input": ["to_f5"], "attr": {"DstT": {"type": "DT_INT64"}, "Truncate": {"b": false}, "SrcT": {"type": "DT_DOUBLE"}}}, {"name": "StatefulPartitionedCall/model_1/integer_lookup_238/Cast", "op": "Cast", "input": ["to_f6"], "attr": {"Truncate": {"b": false}, "SrcT": {"type": "DT_DOUBLE"}, "DstT": {"type": "DT_INT64"}}}, {"name": "StatefulPartitionedCall/model_1/integer_lookup_246/Cast", "op": "Cast", "input": ["to_f7"], "attr": {"DstT": {"type": "DT_INT64"}, "SrcT": {"type": "DT_DOUBLE"}, "Truncate": {"b": false}}}, {"name": "StatefulPartitionedCall/model_1/integer_lookup_254/Cast", "op": "Cast", "input": ["to_f8"], "attr": {"DstT": {"type": "DT_INT64"}, "Truncate": {"b": false}, "SrcT": {"type": "DT_DOUBLE"}}}, {"name": "StatefulPartitionedCall/model_1/integer_lookup_199/Cast", "op": "Cast", "input": ["to_g1"], "attr": {"SrcT": {"type": "DT_DOUBLE"}, "Truncate": {"b": false}, "DstT": {"type": "DT_INT64"}}}, {"name": "StatefulPartitionedCall/model_1/integer_lookup_207/Cast", "op": "Cast", "input": ["to_g2"], "attr": {"Truncate": {"b": false}, "SrcT": {"type": "DT_DOUBLE"}, "DstT": {"type": "DT_INT64"}}}, {"name": "StatefulPartitionedCall/model_1/integer_lookup_215/Cast", "op": "Cast", "input": ["to_g3"], "attr": {"SrcT": {"type": "DT_DOUBLE"}, "DstT": {"type": "DT_INT64"}, "Truncate": {"b": false}}}, {"name": "StatefulPartitionedCall/model_1/integer_lookup_223/Cast", "op": "Cast", "input": ["to_g4"], "attr": {"DstT": {"type": "DT_INT64"}, "SrcT": {"type": "DT_DOUBLE"}, "Truncate": {"b": false}}}, {"name": "StatefulPartitionedCall/model_1/integer_lookup_231/Cast", "op": "Cast", "input": ["to_g5"], "attr": {"Truncate": {"b": false}, "SrcT": {"type": "DT_DOUBLE"}, "DstT": {"type": "DT_INT64"}}}, {"name": "StatefulPartitionedCall/model_1/integer_lookup_239/Cast", "op": "Cast", "input": ["to_g6"], "attr": {"DstT": {"type": "DT_INT64"}, "SrcT": {"type": "DT_DOUBLE"}, "Truncate": {"b": false}}}, {"name": "StatefulPartitionedCall/model_1/integer_lookup_247/Cast", "op": "Cast", "input": ["to_g7"], "attr": {"Truncate": {"b": false}, "SrcT": {"type": "DT_DOUBLE"}, "DstT": {"type": "DT_INT64"}}}, {"name": "StatefulPartitionedCall/model_1/integer_lookup_255/Cast", "op": "Cast", "input": ["to_g8"], "attr": {"Truncate": {"b": false}, "DstT": {"type": "DT_INT64"}, "SrcT": {"type": "DT_DOUBLE"}}}, {"name": "StatefulPartitionedCall/model_1/integer_lookup_200/Cast", "op": "Cast", "input": ["to_h1"], "attr": {"DstT": {"type": "DT_INT64"}, "Truncate": {"b": false}, "SrcT": {"type": "DT_DOUBLE"}}}, {"name": "StatefulPartitionedCall/model_1/integer_lookup_208/Cast", "op": "Cast", "input": ["to_h2"], "attr": {"SrcT": {"type": "DT_DOUBLE"}, "DstT": {"type": "DT_INT64"}, "Truncate": {"b": false}}}, {"name": "StatefulPartitionedCall/model_1/integer_lookup_216/Cast", "op": "Cast", "input": ["to_h3"], "attr": {"DstT": {"type": "DT_INT64"}, "Truncate": {"b": false}, "SrcT": {"type": "DT_DOUBLE"}}}, {"name": "StatefulPartitionedCall/model_1/integer_lookup_224/Cast", "op": "Cast", "input": ["to_h4"], "attr": {"Truncate": {"b": false}, "DstT": {"type": "DT_INT64"}, "SrcT": {"type": "DT_DOUBLE"}}}, {"name": "StatefulPartitionedCall/model_1/integer_lookup_232/Cast", "op": "Cast", "input": ["to_h5"], "attr": {"Truncate": {"b": false}, "SrcT": {"type": "DT_DOUBLE"}, "DstT": {"type": "DT_INT64"}}}, {"name": "StatefulPartitionedCall/model_1/integer_lookup_240/Cast", "op": "Cast", "input": ["to_h6"], "attr": {"SrcT": {"type": "DT_DOUBLE"}, "DstT": {"type": "DT_INT64"}, "Truncate": {"b": false}}}, {"name": "StatefulPartitionedCall/model_1/integer_lookup_248/Cast", "op": "Cast", "input": ["to_h7"], "attr": {"SrcT": {"type": "DT_DOUBLE"}, "Truncate": {"b": false}, "DstT": {"type": "DT_INT64"}}}, {"name": "StatefulPartitionedCall/model_1/integer_lookup_256/Cast", "op": "Cast", "input": ["to_h8"], "attr": {"DstT": {"type": "DT_INT64"}, "Truncate": {"b": false}, "SrcT": {"type": "DT_DOUBLE"}}}, {"name": "StatefulPartitionedCall/model_1/string_lookup_127/None_Lookup/LookupTableFindV2", "op": "LookupTableFindV2", "input": ["unknown_257", "h8", "unknown_258"], "attr": {"Tin": {"type": "DT_STRING"}, "Tout": {"type": "DT_INT64"}}}, {"name": "StatefulPartitionedCall/model_1/string_lookup_126/None_Lookup/LookupTableFindV2", "op": "LookupTableFindV2", "input": ["unknown_259", "g8", "unknown_260"], "attr": {"Tout": {"type": "DT_INT64"}, "Tin": {"type": "DT_STRING"}}}, {"name": "StatefulPartitionedCall/model_1/string_lookup_125/None_Lookup/LookupTableFindV2", "op": "LookupTableFindV2", "input": ["unknown_261", "f8", "unknown_262"], "attr": {"Tin": {"type": "DT_STRING"}, "Tout": {"type": "DT_INT64"}}}, {"name": "StatefulPartitionedCall/model_1/string_lookup_124/None_Lookup/LookupTableFindV2", "op": "LookupTableFindV2", "input": ["unknown_263", "e8", "unknown_264"], "attr": {"Tin": {"type": "DT_STRING"}, "Tout": {"type": "DT_INT64"}}}, {"name": "StatefulPartitionedCall/model_1/string_lookup_123/None_Lookup/LookupTableFindV2", "op": "LookupTableFindV2", "input": ["unknown_265", "d8", "unknown_266"], "attr": {"Tout": {"type": "DT_INT64"}, "Tin": {"type": "DT_STRING"}}}, {"name": "StatefulPartitionedCall/model_1/string_lookup_122/None_Lookup/LookupTableFindV2", "op": "LookupTableFindV2", "input": ["unknown_267", "c8", "unknown_268"], "attr": {"Tin": {"type": "DT_STRING"}, "Tout": {"type": "DT_INT64"}}}, {"name": "StatefulPartitionedCall/model_1/string_lookup_121/None_Lookup/LookupTableFindV2", "op": "LookupTableFindV2", "input": ["unknown_269", "b8", "unknown_270"], "attr": {"Tout": {"type": "DT_INT64"}, "Tin": {"type": "DT_STRING"}}}, {"name": "StatefulPartitionedCall/model_1/string_lookup_120/None_Lookup/LookupTableFindV2", "op": "LookupTableFindV2", "input": ["unknown_271", "a8", "unknown_272"], "attr": {"Tin": {"type": "DT_STRING"}, "Tout": {"type": "DT_INT64"}}}, {"name": "StatefulPartitionedCall/model_1/string_lookup_119/None_Lookup/LookupTableFindV2", "op": "LookupTableFindV2", "input": ["unknown_273", "h7", "unknown_274"], "attr": {"Tout": {"type": "DT_INT64"}, "Tin": {"type": "DT_STRING"}}}, {"name": "StatefulPartitionedCall/model_1/string_lookup_118/None_Lookup/LookupTableFindV2", "op": "LookupTableFindV2", "input": ["unknown_275", "g7", "unknown_276"], "attr": {"Tin": {"type": "DT_STRING"}, "Tout": {"type": "DT_INT64"}}}, {"name": "StatefulPartitionedCall/model_1/string_lookup_117/None_Lookup/LookupTableFindV2", "op": "LookupTableFindV2", "input": ["unknown_277", "f7", "unknown_278"], "attr": {"Tin": {"type": "DT_STRING"}, "Tout": {"type": "DT_INT64"}}}, {"name": "StatefulPartitionedCall/model_1/string_lookup_116/None_Lookup/LookupTableFindV2", "op": "LookupTableFindV2", "input": ["unknown_279", "e7", "unknown_280"], "attr": {"Tout": {"type": "DT_INT64"}, "Tin": {"type": "DT_STRING"}}}, {"name": "StatefulPartitionedCall/model_1/string_lookup_115/None_Lookup/LookupTableFindV2", "op": "LookupTableFindV2", "input": ["unknown_281", "d7", "unknown_282"], "attr": {"Tout": {"type": "DT_INT64"}, "Tin": {"type": "DT_STRING"}}}, {"name": "StatefulPartitionedCall/model_1/string_lookup_114/None_Lookup/LookupTableFindV2", "op": "LookupTableFindV2", "input": ["unknown_283", "c7", "unknown_284"], "attr": {"Tout": {"type": "DT_INT64"}, "Tin": {"type": "DT_STRING"}}}, {"name": "StatefulPartitionedCall/model_1/string_lookup_113/None_Lookup/LookupTableFindV2", "op": "LookupTableFindV2", "input": ["unknown_285", "b7", "unknown_286"], "attr": {"Tout": {"type": "DT_INT64"}, "Tin": {"type": "DT_STRING"}}}, {"name": "StatefulPartitionedCall/model_1/string_lookup_112/None_Lookup/LookupTableFindV2", "op": "LookupTableFindV2", "input": ["unknown_287", "a7", "unknown_288"], "attr": {"Tout": {"type": "DT_INT64"}, "Tin": {"type": "DT_STRING"}}}, {"name": "StatefulPartitionedCall/model_1/string_lookup_111/None_Lookup/LookupTableFindV2", "op": "LookupTableFindV2", "input": ["unknown_289", "h6", "unknown_290"], "attr": {"Tin": {"type": "DT_STRING"}, "Tout": {"type": "DT_INT64"}}}, {"name": "StatefulPartitionedCall/model_1/string_lookup_110/None_Lookup/LookupTableFindV2", "op": "LookupTableFindV2", "input": ["unknown_291", "g6", "unknown_292"], "attr": {"Tin": {"type": "DT_STRING"}, "Tout": {"type": "DT_INT64"}}}, {"name": "StatefulPartitionedCall/model_1/string_lookup_109/None_Lookup/LookupTableFindV2", "op": "LookupTableFindV2", "input": ["unknown_293", "f6", "unknown_294"], "attr": {"Tin": {"type": "DT_STRING"}, "Tout": {"type": "DT_INT64"}}}, {"name": "StatefulPartitionedCall/model_1/string_lookup_108/None_Lookup/LookupTableFindV2", "op": "LookupTableFindV2", "input": ["unknown_295", "e6", "unknown_296"], "attr": {"Tout": {"type": "DT_INT64"}, "Tin": {"type": "DT_STRING"}}}, {"name": "StatefulPartitionedCall/model_1/string_lookup_107/None_Lookup/LookupTableFindV2", "op": "LookupTableFindV2", "input": ["unknown_297", "d6", "unknown_298"], "attr": {"Tout": {"type": "DT_INT64"}, "Tin": {"type": "DT_STRING"}}}, {"name": "StatefulPartitionedCall/model_1/string_lookup_106/None_Lookup/LookupTableFindV2", "op": "LookupTableFindV2", "input": ["unknown_299", "c6", "unknown_300"], "attr": {"Tout": {"type": "DT_INT64"}, "Tin": {"type": "DT_STRING"}}}, {"name": "StatefulPartitionedCall/model_1/string_lookup_105/None_Lookup/LookupTableFindV2", "op": "LookupTableFindV2", "input": ["unknown_301", "b6", "unknown_302"], "attr": {"Tin": {"type": "DT_STRING"}, "Tout": {"type": "DT_INT64"}}}, {"name": "StatefulPartitionedCall/model_1/string_lookup_104/None_Lookup/LookupTableFindV2", "op": "LookupTableFindV2", "input": ["unknown_303", "a6", "unknown_304"], "attr": {"Tin": {"type": "DT_STRING"}, "Tout": {"type": "DT_INT64"}}}, {"name": "StatefulPartitionedCall/model_1/string_lookup_103/None_Lookup/LookupTableFindV2", "op": "LookupTableFindV2", "input": ["unknown_305", "h5", "unknown_306"], "attr": {"Tout": {"type": "DT_INT64"}, "Tin": {"type": "DT_STRING"}}}, {"name": "StatefulPartitionedCall/model_1/string_lookup_102/None_Lookup/LookupTableFindV2", "op": "LookupTableFindV2", "input": ["unknown_307", "g5", "unknown_308"], "attr": {"Tin": {"type": "DT_STRING"}, "Tout": {"type": "DT_INT64"}}}, {"name": "StatefulPartitionedCall/model_1/string_lookup_101/None_Lookup/LookupTableFindV2", "op": "LookupTableFindV2", "input": ["unknown_309", "f5", "unknown_310"], "attr": {"Tout": {"type": "DT_INT64"}, "Tin": {"type": "DT_STRING"}}}, {"name": "StatefulPartitionedCall/model_1/string_lookup_100/None_Lookup/LookupTableFindV2", "op": "LookupTableFindV2", "input": ["unknown_311", "e5", "unknown_312"], "attr": {"Tin": {"type": "DT_STRING"}, "Tout": {"type": "DT_INT64"}}}, {"name": "StatefulPartitionedCall/model_1/string_lookup_99/None_Lookup/LookupTableFindV2", "op": "LookupTableFindV2", "input": ["unknown_313", "d5", "unknown_314"], "attr": {"Tin": {"type": "DT_STRING"}, "Tout": {"type": "DT_INT64"}}}, {"name": "StatefulPartitionedCall/model_1/string_lookup_98/None_Lookup/LookupTableFindV2", "op": "LookupTableFindV2", "input": ["unknown_315", "c5", "unknown_316"], "attr": {"Tout": {"type": "DT_INT64"}, "Tin": {"type": "DT_STRING"}}}, {"name": "StatefulPartitionedCall/model_1/string_lookup_97/None_Lookup/LookupTableFindV2", "op": "LookupTableFindV2", "input": ["unknown_317", "b5", "unknown_318"], "attr": {"Tout": {"type": "DT_INT64"}, "Tin": {"type": "DT_STRING"}}}, {"name": "StatefulPartitionedCall/model_1/string_lookup_96/None_Lookup/LookupTableFindV2", "op": "LookupTableFindV2", "input": ["unknown_319", "a5", "unknown_320"], "attr": {"Tin": {"type": "DT_STRING"}, "Tout": {"type": "DT_INT64"}}}, {"name": "StatefulPartitionedCall/model_1/string_lookup_95/None_Lookup/LookupTableFindV2", "op": "LookupTableFindV2", "input": ["unknown_321", "h4", "unknown_322"], "attr": {"Tin": {"type": "DT_STRING"}, "Tout": {"type": "DT_INT64"}}}, {"name": "StatefulPartitionedCall/model_1/string_lookup_94/None_Lookup/LookupTableFindV2", "op": "LookupTableFindV2", "input": ["unknown_323", "g4", "unknown_324"], "attr": {"Tin": {"type": "DT_STRING"}, "Tout": {"type": "DT_INT64"}}}, {"name": "StatefulPartitionedCall/model_1/string_lookup_93/None_Lookup/LookupTableFindV2", "op": "LookupTableFindV2", "input": ["unknown_325", "f4", "unknown_326"], "attr": {"Tout": {"type": "DT_INT64"}, "Tin": {"type": "DT_STRING"}}}, {"name": "StatefulPartitionedCall/model_1/string_lookup_92/None_Lookup/LookupTableFindV2", "op": "LookupTableFindV2", "input": ["unknown_327", "e4", "unknown_328"], "attr": {"Tin": {"type": "DT_STRING"}, "Tout": {"type": "DT_INT64"}}}, {"name": "StatefulPartitionedCall/model_1/string_lookup_91/None_Lookup/LookupTableFindV2", "op": "LookupTableFindV2", "input": ["unknown_329", "d4", "unknown_330"], "attr": {"Tin": {"type": "DT_STRING"}, "Tout": {"type": "DT_INT64"}}}, {"name": "StatefulPartitionedCall/model_1/string_lookup_90/None_Lookup/LookupTableFindV2", "op": "LookupTableFindV2", "input": ["unknown_331", "c4", "unknown_332"], "attr": {"Tin": {"type": "DT_STRING"}, "Tout": {"type": "DT_INT64"}}}, {"name": "StatefulPartitionedCall/model_1/string_lookup_89/None_Lookup/LookupTableFindV2", "op": "LookupTableFindV2", "input": ["unknown_333", "b4", "unknown_334"], "attr": {"Tout": {"type": "DT_INT64"}, "Tin": {"type": "DT_STRING"}}}, {"name": "StatefulPartitionedCall/model_1/string_lookup_88/None_Lookup/LookupTableFindV2", "op": "LookupTableFindV2", "input": ["unknown_335", "a4", "unknown_336"], "attr": {"Tin": {"type": "DT_STRING"}, "Tout": {"type": "DT_INT64"}}}, {"name": "StatefulPartitionedCall/model_1/string_lookup_87/None_Lookup/LookupTableFindV2", "op": "LookupTableFindV2", "input": ["unknown_337", "h3", "unknown_338"], "attr": {"Tout": {"type": "DT_INT64"}, "Tin": {"type": "DT_STRING"}}}, {"name": "StatefulPartitionedCall/model_1/string_lookup_86/None_Lookup/LookupTableFindV2", "op": "LookupTableFindV2", "input": ["unknown_339", "g3", "unknown_340"], "attr": {"Tout": {"type": "DT_INT64"}, "Tin": {"type": "DT_STRING"}}}, {"name": "StatefulPartitionedCall/model_1/string_lookup_85/None_Lookup/LookupTableFindV2", "op": "LookupTableFindV2", "input": ["unknown_341", "f3", "unknown_342"], "attr": {"Tout": {"type": "DT_INT64"}, "Tin": {"type": "DT_STRING"}}}, {"name": "StatefulPartitionedCall/model_1/string_lookup_84/None_Lookup/LookupTableFindV2", "op": "LookupTableFindV2", "input": ["unknown_343", "e3", "unknown_344"], "attr": {"Tout": {"type": "DT_INT64"}, "Tin": {"type": "DT_STRING"}}}, {"name": "StatefulPartitionedCall/model_1/string_lookup_83/None_Lookup/LookupTableFindV2", "op": "LookupTableFindV2", "input": ["unknown_345", "d3", "unknown_346"], "attr": {"Tin": {"type": "DT_STRING"}, "Tout": {"type": "DT_INT64"}}}, {"name": "StatefulPartitionedCall/model_1/string_lookup_82/None_Lookup/LookupTableFindV2", "op": "LookupTableFindV2", "input": ["unknown_347", "c3", "unknown_348"], "attr": {"Tin": {"type": "DT_STRING"}, "Tout": {"type": "DT_INT64"}}}, {"name": "StatefulPartitionedCall/model_1/string_lookup_81/None_Lookup/LookupTableFindV2", "op": "LookupTableFindV2", "input": ["unknown_349", "b3", "unknown_350"], "attr": {"Tin": {"type": "DT_STRING"}, "Tout": {"type": "DT_INT64"}}}, {"name": "StatefulPartitionedCall/model_1/string_lookup_80/None_Lookup/LookupTableFindV2", "op": "LookupTableFindV2", "input": ["unknown_351", "a3", "unknown_352"], "attr": {"Tin": {"type": "DT_STRING"}, "Tout": {"type": "DT_INT64"}}}, {"name": "StatefulPartitionedCall/model_1/string_lookup_79/None_Lookup/LookupTableFindV2", "op": "LookupTableFindV2", "input": ["unknown_353", "h2", "unknown_354"], "attr": {"Tin": {"type": "DT_STRING"}, "Tout": {"type": "DT_INT64"}}}, {"name": "StatefulPartitionedCall/model_1/string_lookup_78/None_Lookup/LookupTableFindV2", "op": "LookupTableFindV2", "input": ["unknown_355", "g2", "unknown_356"], "attr": {"Tin": {"type": "DT_STRING"}, "Tout": {"type": "DT_INT64"}}}, {"name": "StatefulPartitionedCall/model_1/string_lookup_77/None_Lookup/LookupTableFindV2", "op": "LookupTableFindV2", "input": ["unknown_357", "f2", "unknown_358"], "attr": {"Tin": {"type": "DT_STRING"}, "Tout": {"type": "DT_INT64"}}}, {"name": "StatefulPartitionedCall/model_1/string_lookup_76/None_Lookup/LookupTableFindV2", "op": "LookupTableFindV2", "input": ["unknown_359", "e2", "unknown_360"], "attr": {"Tin": {"type": "DT_STRING"}, "Tout": {"type": "DT_INT64"}}}, {"name": "StatefulPartitionedCall/model_1/string_lookup_75/None_Lookup/LookupTableFindV2", "op": "LookupTableFindV2", "input": ["unknown_361", "d2", "unknown_362"], "attr": {"Tin": {"type": "DT_STRING"}, "Tout": {"type": "DT_INT64"}}}, {"name": "StatefulPartitionedCall/model_1/string_lookup_74/None_Lookup/LookupTableFindV2", "op": "LookupTableFindV2", "input": ["unknown_363", "c2", "unknown_364"], "attr": {"Tout": {"type": "DT_INT64"}, "Tin": {"type": "DT_STRING"}}}, {"name": "StatefulPartitionedCall/model_1/string_lookup_73/None_Lookup/LookupTableFindV2", "op": "LookupTableFindV2", "input": ["unknown_365", "b2", "unknown_366"], "attr": {"Tin": {"type": "DT_STRING"}, "Tout": {"type": "DT_INT64"}}}, {"name": "StatefulPartitionedCall/model_1/string_lookup_72/None_Lookup/LookupTableFindV2", "op": "LookupTableFindV2", "input": ["unknown_367", "a2", "unknown_368"], "attr": {"Tin": {"type": "DT_STRING"}, "Tout": {"type": "DT_INT64"}}}, {"name": "StatefulPartitionedCall/model_1/string_lookup_71/None_Lookup/LookupTableFindV2", "op": "LookupTableFindV2", "input": ["unknown_369", "h1", "unknown_370"], "attr": {"Tout": {"type": "DT_INT64"}, "Tin": {"type": "DT_STRING"}}}, {"name": "StatefulPartitionedCall/model_1/string_lookup_70/None_Lookup/LookupTableFindV2", "op": "LookupTableFindV2", "input": ["unknown_371", "g1", "unknown_372"], "attr": {"Tout": {"type": "DT_INT64"}, "Tin": {"type": "DT_STRING"}}}, {"name": "StatefulPartitionedCall/model_1/string_lookup_69/None_Lookup/LookupTableFindV2", "op": "LookupTableFindV2", "input": ["unknown_373", "f1", "unknown_374"], "attr": {"Tout": {"type": "DT_INT64"}, "Tin": {"type": "DT_STRING"}}}, {"name": "StatefulPartitionedCall/model_1/string_lookup_68/None_Lookup/LookupTableFindV2", "op": "LookupTableFindV2", "input": ["unknown_375", "e1", "unknown_376"], "attr": {"Tin": {"type": "DT_STRING"}, "Tout": {"type": "DT_INT64"}}}, {"name": "StatefulPartitionedCall/model_1/string_lookup_67/None_Lookup/LookupTableFindV2", "op": "LookupTableFindV2", "input": ["unknown_377", "d1", "unknown_378"], "attr": {"Tout": {"type": "DT_INT64"}, "Tin": {"type": "DT_STRING"}}}, {"name": "StatefulPartitionedCall/model_1/string_lookup_66/None_Lookup/LookupTableFindV2", "op": "LookupTableFindV2", "input": ["unknown_379", "c1", "unknown_380"], "attr": {"Tin": {"type": "DT_STRING"}, "Tout": {"type": "DT_INT64"}}}, {"name": "StatefulPartitionedCall/model_1/string_lookup_65/None_Lookup/LookupTableFindV2", "op": "LookupTableFindV2", "input": ["unknown_381", "b1", "unknown_382"], "attr": {"Tin": {"type": "DT_STRING"}, "Tout": {"type": "DT_INT64"}}}, {"name": "StatefulPartitionedCall/model_1/string_lookup_64/None_Lookup/LookupTableFindV2", "op": "LookupTableFindV2", "input": ["unknown_383", "a1", "unknown_384"], "attr": {"Tout": {"type": "DT_INT64"}, "Tin": {"type": "DT_STRING"}}}, {"name": "StatefulPartitionedCall/model_1/integer_lookup_257/None_Lookup/LookupTableFindV2", "op": "LookupTableFindV2", "input": ["unknown", "StatefulPartitionedCall/model_1/integer_lookup_257/Cast", "unknown_0"], "attr": {"Tin": {"type": "DT_INT64"}, "Tout": {"type": "DT_INT64"}}}, {"name": "StatefulPartitionedCall/model_1/integer_lookup_129/None_Lookup/LookupTableFindV2", "op": "LookupTableFindV2", "input": ["unknown_255", "StatefulPartitionedCall/model_1/integer_lookup_129/Cast", "unknown_256"], "attr": {"Tout": {"type": "DT_INT64"}, "Tin": {"type": "DT_INT64"}}}, {"name": "StatefulPartitionedCall/model_1/integer_lookup_137/None_Lookup/LookupTableFindV2", "op": "LookupTableFindV2", "input": ["unknown_239", "StatefulPartitionedCall/model_1/integer_lookup_137/Cast", "unknown_240"], "attr": {"Tin": {"type": "DT_INT64"}, "Tout": {"type": "DT_INT64"}}}, {"name": "StatefulPartitionedCall/model_1/integer_lookup_145/None_Lookup/LookupTableFindV2", "op": "LookupTableFindV2", "input": ["unknown_223", "StatefulPartitionedCall/model_1/integer_lookup_145/Cast", "unknown_224"], "attr": {"Tout": {"type": "DT_INT64"}, "Tin": {"type": "DT_INT64"}}}, {"name": "StatefulPartitionedCall/model_1/integer_lookup_153/None_Lookup/LookupTableFindV2", "op": "LookupTableFindV2", "input": ["unknown_207", "StatefulPartitionedCall/model_1/integer_lookup_153/Cast", "unknown_208"], "attr": {"Tout": {"type": "DT_INT64"}, "Tin": {"type": "DT_INT64"}}}, {"name": "StatefulPartitionedCall/model_1/integer_lookup_161/None_Lookup/LookupTableFindV2", "op": "LookupTableFindV2", "input": ["unknown_191", "StatefulPartitionedCall/model_1/integer_lookup_161/Cast", "unknown_192"], "attr": {"Tin": {"type": "DT_INT64"}, "Tout": {"type": "DT_INT64"}}}, {"name": "StatefulPartitionedCall/model_1/integer_lookup_169/None_Lookup/LookupTableFindV2", "op": "LookupTableFindV2", "input": ["unknown_175", "StatefulPartitionedCall/model_1/integer_lookup_169/Cast", "unknown_176"], "attr": {"Tout": {"type": "DT_INT64"}, "Tin": {"type": "DT_INT64"}}}, {"name": "StatefulPartitionedCall/model_1/integer_lookup_177/None_Lookup/LookupTableFindV2", "op": "LookupTableFindV2", "input": ["unknown_159", "StatefulPartitionedCall/model_1/integer_lookup_177/Cast", "unknown_160"], "attr": {"Tout": {"type": "DT_INT64"}, "Tin": {"type": "DT_INT64"}}}, {"name": "StatefulPartitionedCall/model_1/integer_lookup_185/None_Lookup/LookupTableFindV2", "op": "LookupTableFindV2", "input": ["unknown_143", "StatefulPartitionedCall/model_1/integer_lookup_185/Cast", "unknown_144"], "attr": {"Tin": {"type": "DT_INT64"}, "Tout": {"type": "DT_INT64"}}}, {"name": "StatefulPartitionedCall/model_1/integer_lookup_130/None_Lookup/LookupTableFindV2", "op": "LookupTableFindV2", "input": ["unknown_253", "StatefulPartitionedCall/model_1/integer_lookup_130/Cast", "unknown_254"], "attr": {"Tin": {"type": "DT_INT64"}, "Tout": {"type": "DT_INT64"}}}, {"name": "StatefulPartitionedCall/model_1/integer_lookup_138/None_Lookup/LookupTableFindV2", "op": "LookupTableFindV2", "input": ["unknown_237", "StatefulPartitionedCall/model_1/integer_lookup_138/Cast", "unknown_238"], "attr": {"Tout": {"type": "DT_INT64"}, "Tin": {"type": "DT_INT64"}}}, {"name": "StatefulPartitionedCall/model_1/integer_lookup_146/None_Lookup/LookupTableFindV2", "op": "LookupTableFindV2", "input": ["unknown_221", "StatefulPartitionedCall/model_1/integer_lookup_146/Cast", "unknown_222"], "attr": {"Tout": {"type": "DT_INT64"}, "Tin": {"type": "DT_INT64"}}}, {"name": "StatefulPartitionedCall/model_1/integer_lookup_154/None_Lookup/LookupTableFindV2", "op": "LookupTableFindV2", "input": ["unknown_205", "StatefulPartitionedCall/model_1/integer_lookup_154/Cast", "unknown_206"], "attr": {"Tout": {"type": "DT_INT64"}, "Tin": {"type": "DT_INT64"}}}, {"name": "StatefulPartitionedCall/model_1/integer_lookup_162/None_Lookup/LookupTableFindV2", "op": "LookupTableFindV2", "input": ["unknown_189", "StatefulPartitionedCall/model_1/integer_lookup_162/Cast", "unknown_190"], "attr": {"Tout": {"type": "DT_INT64"}, "Tin": {"type": "DT_INT64"}}}, {"name": "StatefulPartitionedCall/model_1/integer_lookup_170/None_Lookup/LookupTableFindV2", "op": "LookupTableFindV2", "input": ["unknown_173", "StatefulPartitionedCall/model_1/integer_lookup_170/Cast", "unknown_174"], "attr": {"Tin": {"type": "DT_INT64"}, "Tout": {"type": "DT_INT64"}}}, {"name": "StatefulPartitionedCall/model_1/integer_lookup_178/None_Lookup/LookupTableFindV2", "op": "LookupTableFindV2", "input": ["unknown_157", "StatefulPartitionedCall/model_1/integer_lookup_178/Cast", "unknown_158"], "attr": {"Tin": {"type": "DT_INT64"}, "Tout": {"type": "DT_INT64"}}}, {"name": "StatefulPartitionedCall/model_1/integer_lookup_186/None_Lookup/LookupTableFindV2", "op": "LookupTableFindV2", "input": ["unknown_141", "StatefulPartitionedCall/model_1/integer_lookup_186/Cast", "unknown_142"], "attr": {"Tout": {"type": "DT_INT64"}, "Tin": {"type": "DT_INT64"}}}, {"name": "StatefulPartitionedCall/model_1/integer_lookup_131/None_Lookup/LookupTableFindV2", "op": "LookupTableFindV2", "input": ["unknown_251", "StatefulPartitionedCall/model_1/integer_lookup_131/Cast", "unknown_252"], "attr": {"Tin": {"type": "DT_INT64"}, "Tout": {"type": "DT_INT64"}}}, {"name": "StatefulPartitionedCall/model_1/integer_lookup_139/None_Lookup/LookupTableFindV2", "op": "LookupTableFindV2", "input": ["unknown_235", "StatefulPartitionedCall/model_1/integer_lookup_139/Cast", "unknown_236"], "attr": {"Tout": {"type": "DT_INT64"}, "Tin": {"type": "DT_INT64"}}}, {"name": "StatefulPartitionedCall/model_1/integer_lookup_147/None_Lookup/LookupTableFindV2", "op": "LookupTableFindV2", "input": ["unknown_219", "StatefulPartitionedCall/model_1/integer_lookup_147/Cast", "unknown_220"], "attr": {"Tin": {"type": "DT_INT64"}, "Tout": {"type": "DT_INT64"}}}, {"name": "StatefulPartitionedCall/model_1/integer_lookup_155/None_Lookup/LookupTableFindV2", "op": "LookupTableFindV2", "input": ["unknown_203", "StatefulPartitionedCall/model_1/integer_lookup_155/Cast", "unknown_204"], "attr": {"Tin": {"type": "DT_INT64"}, "Tout": {"type": "DT_INT64"}}}, {"name": "StatefulPartitionedCall/model_1/integer_lookup_163/None_Lookup/LookupTableFindV2", "op": "LookupTableFindV2", "input": ["unknown_187", "StatefulPartitionedCall/model_1/integer_lookup_163/Cast", "unknown_188"], "attr": {"Tin": {"type": "DT_INT64"}, "Tout": {"type": "DT_INT64"}}}, {"name": "StatefulPartitionedCall/model_1/integer_lookup_171/None_Lookup/LookupTableFindV2", "op": "LookupTableFindV2", "input": ["unknown_171", "StatefulPartitionedCall/model_1/integer_lookup_171/Cast", "unknown_172"], "attr": {"Tin": {"type": "DT_INT64"}, "Tout": {"type": "DT_INT64"}}}, {"name": "StatefulPartitionedCall/model_1/integer_lookup_179/None_Lookup/LookupTableFindV2", "op": "LookupTableFindV2", "input": ["unknown_155", "StatefulPartitionedCall/model_1/integer_lookup_179/Cast", "unknown_156"], "attr": {"Tout": {"type": "DT_INT64"}, "Tin": {"type": "DT_INT64"}}}, {"name": "StatefulPartitionedCall/model_1/integer_lookup_187/None_Lookup/LookupTableFindV2", "op": "LookupTableFindV2", "input": ["unknown_139", "StatefulPartitionedCall/model_1/integer_lookup_187/Cast", "unknown_140"], "attr": {"Tin": {"type": "DT_INT64"}, "Tout": {"type": "DT_INT64"}}}, {"name": "StatefulPartitionedCall/model_1/integer_lookup_132/None_Lookup/LookupTableFindV2", "op": "LookupTableFindV2", "input": ["unknown_249", "StatefulPartitionedCall/model_1/integer_lookup_132/Cast", "unknown_250"], "attr": {"Tout": {"type": "DT_INT64"}, "Tin": {"type": "DT_INT64"}}}, {"name": "StatefulPartitionedCall/model_1/integer_lookup_140/None_Lookup/LookupTableFindV2", "op": "LookupTableFindV2", "input": ["unknown_233", "StatefulPartitionedCall/model_1/integer_lookup_140/Cast", "unknown_234"], "attr": {"Tout": {"type": "DT_INT64"}, "Tin": {"type": "DT_INT64"}}}, {"name": "StatefulPartitionedCall/model_1/integer_lookup_148/None_Lookup/LookupTableFindV2", "op": "LookupTableFindV2", "input": ["unknown_217", "StatefulPartitionedCall/model_1/integer_lookup_148/Cast", "unknown_218"], "attr": {"Tout": {"type": "DT_INT64"}, "Tin": {"type": "DT_INT64"}}}, {"name": "StatefulPartitionedCall/model_1/integer_lookup_156/None_Lookup/LookupTableFindV2", "op": "LookupTableFindV2", "input": ["unknown_201", "StatefulPartitionedCall/model_1/integer_lookup_156/Cast", "unknown_202"], "attr": {"Tout": {"type": "DT_INT64"}, "Tin": {"type": "DT_INT64"}}}, {"name": "StatefulPartitionedCall/model_1/integer_lookup_164/None_Lookup/LookupTableFindV2", "op": "LookupTableFindV2", "input": ["unknown_185", "StatefulPartitionedCall/model_1/integer_lookup_164/Cast", "unknown_186"], "attr": {"Tin": {"type": "DT_INT64"}, "Tout": {"type": "DT_INT64"}}}, {"name": "StatefulPartitionedCall/model_1/integer_lookup_172/None_Lookup/LookupTableFindV2", "op": "LookupTableFindV2", "input": ["unkno…
, {"name": "StatefulPartitionedCall/model_1/category_encoding_324/bincount/Greater/y", "shape": [], "dtype": "int32"}, {"name": "StatefulPartitionedCall/model_1/category_encoding_324/bincount/Const_1", "shape": [2], "dtype": "int32"}, {"name": "StatefulPartitionedCall/model_1/category_encoding_324/bincount/add/y", "shape": [], "dtype": "int32"}, {"name": "StatefulPartitionedCall/model_1/category_encoding_324/bincount/Const_2", "shape": [0], "dtype": "float32"}, {"name": "StatefulPartitionedCall/model_1/category_encoding_325/bincount/maxlength", "shape": [], "dtype": "int32"}, {"name": "StatefulPartitionedCall/model_1/category_encoding_325/bincount/minlength", "shape": [], "dtype": "int32"}, {"name": "StatefulPartitionedCall/model_1/category_encoding_325/bincount/Const", "shape": [1], "dtype": "int32"}, {"name": "StatefulPartitionedCall/model_1/category_encoding_325/bincount/Greater/y", "shape": [], "dtype": "int32"}, {"name": "StatefulPartitionedCall/model_1/category_encoding_325/bincount/Const_1", "shape": [2], "dtype": "int32"}, {"name": "StatefulPartitionedCall/model_1/category_encoding_325/bincount/add/y", "shape": [], "dtype": "int32"}, {"name": "StatefulPartitionedCall/model_1/category_encoding_325/bincount/Const_2", "shape": [0], "dtype": "float32"}, {"name": "StatefulPartitionedCall/model_1/category_encoding_326/bincount/maxlength", "shape": [], "dtype": "int32"}, {"name": "StatefulPartitionedCall/model_1/category_encoding_326/bincount/minlength", "shape": [], "dtype": "int32"}, {"name": "StatefulPartitionedCall/model_1/category_encoding_326/bincount/Const", "shape": [1], "dtype": "int32"}, {"name": "StatefulPartitionedCall/model_1/category_encoding_326/bincount/Greater/y", "shape": [], "dtype": "int32"}, {"name": "StatefulPartitionedCall/model_1/category_encoding_326/bincount/Const_1", "shape": [2], "dtype": "int32"}, {"name": "StatefulPartitionedCall/model_1/category_encoding_326/bincount/add/y", "shape": [], "dtype": "int32"}, {"name": "StatefulPartitionedCall/model_1/category_encoding_326/bincount/Const_2", "shape": [0], "dtype": "float32"}, {"name": "StatefulPartitionedCall/model_1/category_encoding_327/bincount/maxlength", "shape": [], "dtype": "int32"}, {"name": "StatefulPartitionedCall/model_1/category_encoding_327/bincount/minlength", "shape": [], "dtype": "int32"}, {"name": "StatefulPartitionedCall/model_1/category_encoding_327/bincount/Const", "shape": [1], "dtype": "int32"}, {"name": "StatefulPartitionedCall/model_1/category_encoding_327/bincount/Greater/y", "shape": [], "dtype": "int32"}, {"name": "StatefulPartitionedCall/model_1/category_encoding_327/bincount/Const_1", "shape": [2], "dtype": "int32"}, {"name": "StatefulPartitionedCall/model_1/category_encoding_327/bincount/add/y", "shape": [], "dtype": "int32"}, {"name": "StatefulPartitionedCall/model_1/category_encoding_327/bincount/Const_2", "shape": [0], "dtype": "float32"}, {"name": "StatefulPartitionedCall/model_1/category_encoding_328/bincount/maxlength", "shape": [], "dtype": "int32"}, {"name": "StatefulPartitionedCall/model_1/category_encoding_328/bincount/minlength", "shape": [], "dtype": "int32"}, {"name": "StatefulPartitionedCall/model_1/category_encoding_328/bincount/Const", "shape": [1], "dtype": "int32"}, {"name": "StatefulPartitionedCall/model_1/category_encoding_328/bincount/Greater/y", "shape": [], "dtype": "int32"}, {"name": "StatefulPartitionedCall/model_1/category_encoding_328/bincount/Const_1", "shape": [2], "dtype": "int32"}, {"name": "StatefulPartitionedCall/model_1/category_encoding_328/bincount/add/y", "shape": [], "dtype": "int32"}, {"name": "StatefulPartitionedCall/model_1/category_encoding_328/bincount/Const_2", "shape": [0], "dtype": "float32"}, {"name": "StatefulPartitionedCall/model_1/category_encoding_329/bincount/maxlength", "shape": [], "dtype": "int32"}, {"name": "StatefulPartitionedCall/model_1/category_encoding_329/bincount/minlength", "shape": [], "dtype": "int32"}, {"name": "StatefulPartitionedCall/model_1/category_encoding_329/bincount/Const", "shape": [1], "dtype": "int32"}, {"name": "StatefulPartitionedCall/model_1/category_encoding_329/bincount/Greater/y", "shape": [], "dtype": "int32"}, {"name": "StatefulPartitionedCall/model_1/category_encoding_329/bincount/Const_1", "shape": [2], "dtype": "int32"}, {"name": "StatefulPartitionedCall/model_1/category_encoding_329/bincount/add/y", "shape": [], "dtype": "int32"}, {"name": "StatefulPartitionedCall/model_1/category_encoding_329/bincount/Const_2", "shape": [0], "dtype": "float32"}, {"name": "StatefulPartitionedCall/model_1/category_encoding_330/bincount/maxlength", "shape": [], "dtype": "int32"}, {"name": "StatefulPartitionedCall/model_1/category_encoding_330/bincount/minlength", "shape": [], "dtype": "int32"}, {"name": "StatefulPartitionedCall/model_1/category_encoding_330/bincount/Const", "shape": [1], "dtype": "int32"}, {"name": "StatefulPartitionedCall/model_1/category_encoding_330/bincount/Greater/y", "shape": [], "dtype": "int32"}, {"name": "StatefulPartitionedCall/model_1/category_encoding_330/bincount/Const_1", "shape": [2], "dtype": "int32"}, {"name": "StatefulPartitionedCall/model_1/category_encoding_330/bincount/add/y", "shape": [], "dtype": "int32"}, {"name": "StatefulPartitionedCall/model_1/category_encoding_330/bincount/Const_2", "shape": [0], "dtype": "float32"}, {"name": "StatefulPartitionedCall/model_1/category_encoding_331/bincount/maxlength", "shape": [], "dtype": "int32"}, {"name": "StatefulPartitionedCall/model_1/category_encoding_331/bincount/minlength", "shape": [], "dtype": "int32"}, {"name": "StatefulPartitionedCall/model_1/category_encoding_331/bincount/Const", "shape": [1], "dtype": "int32"}, {"name": "StatefulPartitionedCall/model_1/category_encoding_331/bincount/Greater/y", "shape": [], "dtype": "int32"}, {"name": "StatefulPartitionedCall/model_1/category_encoding_331/bincount/Const_1", "shape": [2], "dtype": "int32"}, {"name": "StatefulPartitionedCall/model_1/category_encoding_331/bincount/add/y", "shape": [], "dtype": "int32"}, {"name": "StatefulPartitionedCall/model_1/category_encoding_331/bincount/Const_2", "shape": [0], "dtype": "float32"}, {"name": "StatefulPartitionedCall/model_1/category_encoding_332/bincount/maxlength", "shape": [], "dtype": "int32"}, {"name": "StatefulPartitionedCall/model_1/category_encoding_332/bincount/minlength", "shape": [], "dtype": "int32"}, {"name": "StatefulPartitionedCall/model_1/category_encoding_332/bincount/Const", "shape": [1], "dtype": "int32"}, {"name": "StatefulPartitionedCall/model_1/category_encoding_332/bincount/Greater/y", "shape": [], "dtype": "int32"}, {"name": "StatefulPartitionedCall/model_1/category_encoding_332/bincount/Const_1", "shape": [2], "dtype": "int32"}, {"name": "StatefulPartitionedCall/model_1/category_encoding_332/bincount/add/y", "shape": [], "dtype": "int32"}, {"name": "StatefulPartitionedCall/model_1/category_encoding_332/bincount/Const_2", "shape": [0], "dtype": "float32"}, {"name": "StatefulPartitionedCall/model_1/category_encoding_333/bincount/maxlength", "shape": [], "dtype": "int32"}, {"name": "StatefulPartitionedCall/model_1/category_encoding_333/bincount/minlength", "shape": [], "dtype": "int32"}, {"name": "StatefulPartitionedCall/model_1/category_encoding_333/bincount/Const", "shape": [1], "dtype": "int32"}, {"name": "StatefulPartitionedCall/model_1/category_encoding_333/bincount/Greater/y", "shape": [], "dtype": "int32"}, {"name": "StatefulPartitionedCall/model_1/category_encoding_333/bincount/Const_1", "shape": [2], "dtype": "int32"}, {"name": "StatefulPartitionedCall/model_1/category_encoding_333/bincount/add/y", "shape": [], "dtype": "int32"}, {"name": "StatefulPartitionedCall/model_1/category_encoding_333/bincount/Const_2", "shape": [0], "dtype": "float32"}, {"name": "StatefulPartitionedCall/model_1/category_encoding_334/bincount/maxlength", "shape": [], "dtype": "int32"}, {"name": "StatefulPartitionedCall/model_1/category_encoding_334/bincount/minlength", "shape": [], "dtype": "int32"}, {"name": "StatefulPartitionedCall/model_1/category_encoding_334/bincount/Const", "shape": [1], "dtype": "int32"}, {"name": "StatefulPartitionedCall/model_1/category_encoding_334/bincount/Greater/y", "shape": [], "dtype": "int32"}, {"name": "StatefulPartitionedCall/model_1/category_encoding_334/bincount/Const_1", "shape": [2], "dtype": "int32"}, {"name": "StatefulPartitionedCall/model_1/category_encoding_334/bincount/add/y", "shape": [], "dtype": "int32"}, {"name": "StatefulPartitionedCall/model_1/category_encoding_334/bincount/Const_2", "shape": [0], "dtype": "float32"}, {"name": "StatefulPartitionedCall/model_1/category_encoding_335/bincount/maxlength", "shape": [], "dtype": "int32"}, {"name": "StatefulPartitionedCall/model_1/category_encoding_335/bincount/minlength", "shape": [], "dtype": "int32"}, {"name": "StatefulPartitionedCall/model_1/category_encoding_335/bincount/Const", "shape": [1], "dtype": "int32"}, {"name": "StatefulPartitionedCall/model_1/category_encoding_335/bincount/Greater/y", "shape": [], "dtype": "int32"}, {"name": "StatefulPartitionedCall/model_1/category_encoding_335/bincount/Const_1", "shape": [2], "dtype": "int32"}, {"name": "StatefulPartitionedCall/model_1/category_encoding_335/bincount/add/y", "shape": [], "dtype": "int32"}, {"name": "StatefulPartitionedCall/model_1/category_encoding_335/bincount/Const_2", "shape": [0], "dtype": "float32"}, {"name": "StatefulPartitionedCall/model_1/category_encoding_336/bincount/maxlength", "shape": [], "dtype": "int32"}, {"name": "StatefulPartitionedCall/model_1/category_encoding_336/bincount/minlength", "shape": [], "dtype": "int32"}, {"name": "StatefulPartitionedCall/model_1/category_encoding_336/bincount/Const", "shape": [1], "dtype": "int32"}, {"name": "StatefulPartitionedCall/model_1/category_encoding_336/bincount/Greater/y", "shape": [], "dtype": "int32"}, {"name": "StatefulPartitionedCall/model_1/category_encoding_336/bincount/Const_1", "shape": [2], "dtype": "int32"}, {"name": "StatefulPartitionedCall/model_1/category_encoding_336/bincount/add/y", "shape": [], "dtype": "int32"}, {"name": "StatefulPartitionedCall/model_1/category_encoding_336/bincount/Const_2", "shape": [0], "dtype": "float32"}, {"name": "StatefulPartitionedCall/model_1/category_encoding_337/bincount/maxlength", "shape": [], "dtype": "int32"}, {"name": "StatefulPartitionedCall/model_1/category_encoding_337/bincount/minlength", "shape": [], "dtype": "int32"}, {"name": "StatefulPartitionedCall/model_1/category_encoding_337/bincount/Const", "shape": [1], "dtype": "int32"}, {"name": "StatefulPartitionedCall/model_1/category_encoding_337/bincount/Greater/y", "shape": [], "dtype": "int32"}, {"name": "StatefulPartitionedCall/model_1/category_encoding_337/bincount/Const_1", "shape": [2], "dtype": "int32"}, {"name": "StatefulPartitionedCall/model_1/category_encoding_337/bincount/add/y", "shape": [], "dtype": "int32"}, {"name": "StatefulPartitionedCall/model_1/category_encoding_337/bincount/Const_2", "shape": [0], "dtype": "float32"}, {"name": "StatefulPartitionedCall/model_1/category_encoding_338/bincount/maxlength", "shape": [], "dtype": "int32"}, {"name": "StatefulPartitionedCall/model_1/category_encoding_338/bincount/minlength", "shape": [], "dtype": "int32"}, {"name": "StatefulPartitionedCall/model_1/category_encoding_338/bincount/Const", "shape": [1], "dtype": "int32"}, {"name": "StatefulPartitionedCall/model_1/category_encoding_338/bincount/Greater/y", "shape": [], "dtype": "int32"}, {"name": "StatefulPartitionedCall/model_1/category_encoding_338/bincount/Const_1", "shape": [2], "dtype": "int32"}, {"name": "StatefulPartitionedCall/model_1/category_encoding_338/bincount/add/y", "shape": [], "dtype": "int32"}, {"name": "StatefulPartitionedCall/model_1/category_encoding_338/bincount/Const_2", "shape": [0], "dtype": "float32"}, {"name": "StatefulPartitionedCall/model_1/category_encoding_339/bincount/maxlength", "shape": [], "dtype": "int32"}, {"name": "StatefulPartitionedCall/model_1/category_encoding_339/bincount/minlength", "shape": [], "dtype": "int32"}, {"name": "StatefulPartitionedCall/model_1/category_encoding_339/bincount/Const", "shape": [1], "dtype": "int32"}, {"name": "StatefulPartitionedCall/model_1/category_encoding_339/bincount/Greater/y", "shape": [], "dtype": "int32"}, {"name": "StatefulPartitionedCall/model_1/category_encoding_339/bincount/Const_1", "shape": [2], "dtype": "int32"}, {"name": "StatefulPartitionedCall/model_1/category_encoding_339/bincount/add/y", "shape": [], "dtype": "int32"}, {"name": "StatefulPartitionedCall/model_1/category_encoding_339/bincount/Const_2", "shape": [0], "dtype": "float32"}, {"name": "StatefulPartitionedCall/model_1/category_encoding_340/bincount/maxlength", "shape": [], "dtype": "int32"}, {"name": "StatefulPartitionedCall/model_1/category_encoding_340/bincount/minlength", "shape": [], "dtype": "int32"}, {"name": "StatefulPartitionedCall/model_1/category_encoding_340/bincount/Const", "shape": [1], "dtype": "int32"}, {"name": "StatefulPartitionedCall/model_1/category_encoding_340/bincount/Greater/y", "shape": [], "dtype": "int32"}, {"name": "StatefulPartitionedCall/model_1/category_encoding_340/bincount/Const_1", "shape": [2], "dtype": "int32"}, {"name": "StatefulPartitionedCall/model_1/category_encoding_340/bincount/add/y", "shape": [], "dtype": "int32"}, {"name": "StatefulPartitionedCall/model_1/category_encoding_340/bincount/Const_2", "shape": [0], "dtype": "float32"}, {"name": "StatefulPartitionedCall/model_1/category_encoding_341/bincount/maxlength", "shape": [], "dtype": "int32"}, {"name": "StatefulPartitionedCall/model_1/category_encoding_341/bincount/minlength", "shape": [], "dtype": "int32"}, {"name": "StatefulPartitionedCall/model_1/category_encoding_341/bincount/Const", "shape": [1], "dtype": "int32"}, {"name": "StatefulPartitionedCall/model_1/category_encoding_341/bincount/Greater/y", "shape": [], "dtype": "int32"}, {"name": "StatefulPartitionedCall/model_1/category_encoding_341/bincount/Const_1", "shape": [2], "dtype": "int32"}, {"name": "StatefulPartitionedCall/model_1/category_encoding_341/bincount/add/y", "shape": [], "dtype": "int32"}, {"name": "StatefulPartitionedCall/model_1/category_encoding_341/bincount/Const_2", "shape": [0], "dtype": "float32"}, {"name": "StatefulPartitionedCall/model_1/category_encoding_342/bincount/maxlength", "shape": [], "dtype": "int32"}, {"name": "StatefulPartitionedCall/model_1/category_encoding_342/bincount/minlength", "shape": [], "dtype": "int32"}, {"name": "StatefulPartitionedCall/model_1/category_encoding_342/bincount/Const", "shape": [1], "dtype": "int32"}, {"name": "StatefulPartitionedCall/model_1/category_encoding_342/bincount/Greater/y", "shape": [], "dtype": "int32"}, {"name": "StatefulPartitionedCall/model_1/category_encoding_342/bincount/Const_1", "shape": [2], "dtype": "int32"}, {"name": "StatefulPartitionedCall/model_1/category_encoding_342/bincount/add/y", "shape": [], "dtype": "int32"}, {"name": "StatefulPartitionedCall/model_1/category_encoding_342/bincount/Const_2", "shape": [0], "dtype": "float32"}, {"name": "StatefulPartitionedCall/model_1/category_encoding_343/bincount/maxlength", "shape": [], "dtype": "int32"}, {"name": "StatefulPartitionedCall/model_1/category_encoding_343/bincount/minlength", "shape": [], "dtype": "int32"}, {"name": "StatefulPartitionedCall/model_1/category_encoding_343/bincount/Const", "shape": [1], "dtype": "int32"}, {"name": "StatefulPartitionedCall/model_1/category_encoding_343/bincount/Greater/y", "shape": [], "dtype": "int32"}, {"name": "StatefulPartitionedCall/model_1/category_encoding_343/bincount/Const_1", "shape": [2], "dtype": "int32"}, {"name": "StatefulPartitionedCall/model_1/category_encoding_343/bincount/add/y", "shape": [], "dtype": "int32"}, {"name": "StatefulPartitionedCall/model_1/category_encoding_343/bincount/Const_2", "shape": [0], "dtype": "float32"}, {"name": "StatefulPartitionedCall/model_1/category_encoding_344/bincount/maxlength", "shape": [], "dtype": "int32"}, {"name": "StatefulPartitionedCall/model_1/category_encoding_344/bincount/minlength", "shape": [], "dtype": "int32"}, {"name": "StatefulPartitionedCall/model_1/category_encoding_344/bincount/Const", "shape": [1], "dtype": "int32"}, {"name": "StatefulPartitionedCall/model_1/category_encoding_344/bincount/Greater/y", "shape": [], "dtype": "int32"}, {"name": "StatefulPartitionedCall/model_1/category_encoding_344/bincount/Const_1", "shape": [2], "dtype": "int32"}, {"name": "StatefulPartitionedCall/model_1/category_encoding_344/bincount/add/y", "shape": [], "dtype": "int32"}, {"name": "StatefulPartitionedCall/model_1/category_encoding_344/bincount/Const_2", "shape": [0], "dtype": "float32"}, {"name": "StatefulPartitionedCall/model_1/category_encoding_345/bincount/maxlength", "shape": [], "dtype": "int32"}, {"name": "StatefulPartitionedCall/model_1/category_encoding_345/bincount/minlength", "shape": [], "dtype": "int32"}, {"name": "StatefulPartitionedCall/model_1/category_encoding_345/bincount/Const", "shape": [1], "dtype": "int32"}, {"name": "StatefulPartitionedCall/model_1/category_encoding_345/bincount/Greater/y", "shape": [], "dtype": "int32"}, {"name": "StatefulPartitionedCall/model_1/category_encoding_345/bincount/Const_1", "shape": [2], "dtype": "int32"}, {"name": "StatefulPartitionedCall/model_1/category_encoding_345/bincount/add/y", "shape": [], "dtype": "int32"}, {"name": "StatefulPartitionedCall/model_1/category_encoding_345/bincount/Const_2", "shape": [0], "dtype": "float32"}, {"name": "StatefulPartitionedCall/model_1/category_encoding_346/bincount/maxlength", "shape": [], "dtype": "int32"}, {"name": "StatefulPartitionedCall/model_1/category_encoding_346/bincount/minlength", "shape": [], "dtype": "int32"}, {"name": "StatefulPartitionedCall/model_1/category_encoding_346/bincount/Const", "shape": [1], "dtype": "int32"}, {"name": "StatefulPartitionedCall/model_1/category_encoding_346/bincount/Greater/y", "shape": [], "dtype": "int32"}, {"name": "StatefulPartitionedCall/model_1/category_encoding_346/bincount/Const_1", "shape": [2], "dtype": "int32"}, {"name": "StatefulPartitionedCall/model_1/category_encoding_346/bincount/add/y", "shape": [], "dtype": "int32"}, {"name": "StatefulPartitionedCall/model_1/category_encoding_346/bincount/Const_2", "shape": [0], "dtype": "float32"}, {"name": "StatefulPartitionedCall/model_1/category_encoding_347/bincount/maxlength", "shape": [], "dtype": "int32"}, {"name": "StatefulPartitionedCall/model_1/category_encoding_347/bincount/minlength", "shape": [], "dtype": "int32"}, {"name": "StatefulPartitionedCall/model_1/category_encoding_347/bincount/Const", "shape": [1], "dtype": "int32"}, {"name": "StatefulPartitionedCall/model_1/category_encoding_347/bincount/Greater/y", "shape": [], "dtype": "int32"}, {"name": "StatefulPartitionedCall/model_1/category_encoding_347/bincount/Const_1", "shape": [2], "dtype": "int32"}, {"name": "StatefulPartitionedCall/model_1/category_encoding_347/bincount/add/y", "shape": [], "dtype": "int32"}, {"name": "StatefulPartitionedCall/model_1/category_encoding_347/bincount/Const_2", "shape": [0], "dtype": "float32"}, {"name": "StatefulPartitionedCall/model_1/category_encoding_348/bincount/maxlength", "shape": [], "dtype": "int32"}, {"name": "StatefulPartitionedCall/model_1/category_encoding_348/bincount/minlength", "shape": [], "dtype": "int32"}, {"name": "StatefulPartitionedCall/model_1/category_encoding_348/bincount/Const", "shape": [1], "dtype": "int32"}, {"name": "StatefulPartitionedCall/model_1/category_encoding_348/bincount/Greater/y", "shape": [], "dtype": "int32"}, {"name": "StatefulPartitionedCall/model_1/category_encoding_348/bincount/Const_1", "shape": [2], "dtype": "int32"}, {"name": "StatefulPartitionedCall/model_1/category_encoding_348/bincount/add/y", "shape": [], "dtype": "int32"}, {"name": "StatefulPartitionedCall/model_1/category_encoding_348/bincount/Const_2", "shape": [0], "dtype": "float32"}, {"name": "StatefulPartitionedCall/model_1/category_encoding_349/bincount/maxlength", "shape": [], "dtype": "int32"}, {"name": "StatefulPartitionedCall/model_1/category_encoding_349/bincount/minlength", "shape": [], "dtype": "int32"}, {"name": "StatefulPartitionedCall/model_1/category_encoding_349/bincount/Const", "shape": [1], "dtype": "int32"}, {"name": "StatefulPartitionedCall/model_1/category_encoding_349/bincount/Greater/y", "shape": [], "dtype": "int32"}, {"name": "StatefulPartitionedCall/model_1/category_encoding_349/bincount/Const_1", "shape": [2], "dtype": "int32"}, {"name": "StatefulPartitionedCall/model_1/category_encoding_349/bincount/add/y", "shape": [], "dtype": "int32"}, {"name": "StatefulPartitionedCall/model_1/category_encoding_349/bincount/Const_2", "shape": [0], "dtype": "float32"}, {"name": "StatefulPartitionedCall/model_1/category_encoding_350/bincount/maxlength", "shape": [], "dtype": "int32"}, {"name": "StatefulPartitionedCall/model_1/category_encoding_350/bincount/minlength", "shape": [], "dtype": "int32"}, {"name": "StatefulPartitionedCall/model_1/category_encoding_350/bincount/Const", "shape": [1], "dtype": "int32"}, {"name": "StatefulPartitionedCall/model_1/category_encoding_350/bincount/Greater/y", "shape": [], "dtype": "int32"}, {"name": "StatefulPartitionedCall/model_1/category_encoding_350/bincount/Const_1", "shape": [2], "dtype": "int32"}, {"name": "StatefulPartitionedCall/model_1/category_encoding_350/bincount/add/y", "shape": [], "dtype": "int32"}, {"name": "StatefulPartitionedCall/model_1/category_encoding_350/bincount/Const_2", "shape": [0], "dtype": "float32"}, {"name": "StatefulPartitionedCall/model_1/category_encoding_351/bincount/maxlength", "shape": [], "dtype": "int32"}, {"name": "StatefulPartitionedCall/model_1/category_encoding_351/bincount/minlength", "shape": [], "dtype": "int32"}, {"name": "StatefulPartitionedCall/model_1/category_encoding_351/bincount/Const", "shape": [1], "dtype": "int32"}, {"name": "StatefulPartitionedCall/model_1/category_encoding_351/bincount/Greater/y", "shape": [], "dtype": "int32"}, {"name": "StatefulPartitionedCall/model_1/category_encoding_351/bincount/Const_1", "shape": [2], "dtype": "int32"}, {"name": "StatefulPartitionedCall/model_1/category_encoding_351/bincount/add/y", "shape": [], "dtype": "int32"}, {"name": "StatefulPartitionedCall/model_1/category_encoding_351/bincount/Const_2", "shape": [0], "dtype": "float32"}, {"name": "StatefulPartitionedCall/model_1/category_encoding_352/bincount/maxlength", "shape": [], "dtype": "int32"}, {"name": "StatefulPartitionedCall/model_1/category_encoding_352/bincount/minlength", "shape": [], "dtype": "int32"}, {"name": "StatefulPartitionedCall/model_1/category_encoding_352/bincount/Const", "shape": [1], "dtype": "int32"}, {"name": "StatefulPartitionedCall/model_1/category_encoding_352/bincount/Greater/y", "shape": [], "dtype": "int32"}, {"name": "StatefulPartitionedCall/model_1/category_encoding_352/bincount/Const_1", "shape": [2], "dtype": "int32"}, {"name": "StatefulPartitionedCall/model_1/category_encoding_352/bincount/add/y", "shape": [], "dtype": "int32"}, {"name": "StatefulPartitionedCall/model_1/category_encoding_352/bincount/Const_2", "shape": [0], "dtype": "float32"}, {"name": "StatefulPartitionedCall/model_1/category_encoding_353/bincount/maxlength", "shape": [], "dtype": "int32"}, {"name": "StatefulPartitionedCall/model_1/category_encoding_353/bincount/minlength", "shape": [], "dtype": "int32"}, {"name": "StatefulPartitionedCall/model_1/category_encoding_353/bincount/Const", "shape": [1], "dtype": "int32"}, {"name": "StatefulPartitionedCall/model_1/category_encoding_353/bincount/Greater/y", "shape": [], "dtype": "int32"}, {"name": "StatefulPartitionedCall/model_1/category_encoding_353/bincount/Const_1", "shape": [2], "dtype": "int32"}, {"name": "StatefulPartitionedCall/model_1/category_encoding_353/bincount/add/y", "shape": [], "dtype": "int32"}, {"name": "StatefulPartitionedCall/model_1/category_encoding_353/bincount/Const_2", "shape": [0], "dtype": "float32"}, {"name": "StatefulPartitionedCall/model_1/category_encoding_354/bincount/maxlength", "shape": [], "dtype": "int32"}, {"name": "StatefulPartitionedCall/model_1/category_encoding_354/bincount/minlength", "shape": [], "dtype": "int32"}, {"name": "StatefulPartitionedCall/model_1/category_encoding_354/bincount/Const", "shape": [1], "dtype": "int32"}, {"name": "StatefulPartitionedCall/model_1/category_encoding_354/bincount/Greater/y", "shape": [], "dtype": "int32"}, {"name": "StatefulPartitionedCall/model_1/category_encoding_354/bincount/Const_1", "shape": [2], "dtype": "int32"}, {"name": "StatefulPartitionedCall/model_1/category_encoding_354/bincount/add/y", "shape": [], "dtype": "int32"}, {"name": "StatefulPartitionedCall/model_1/category_encoding_354/bincount/Const_2", "shape": [0], "dtype": "float32"}, {"name": "StatefulPartitionedCall/model_1/category_encoding_355/bincount/maxlength", "shape": [], "dtype": "int32"}, {"name": "StatefulPartitionedCall/model_1/category_encoding_355/bincount/minlength", "shape": [], "dtype": "int32"}, {"name": "StatefulPartitionedCall/model_1/category_encoding_355/bincount/Const", "shape": [1], "dtype": "int32"}, {"name": "StatefulPartitionedCall/model_1/category_encoding_355/bincount/Greater/y", "shape": [], "dtype": "int32"}, {"name": "StatefulPartitionedCall/model_1/category_encoding_355/bincount/Const_1", "shape": [2], "dtype": "int32"}, {"name": "StatefulPartitionedCall/model_1/category_encoding_355/bincount/add/y", "shape": [], "dtype": "int32"}, {"name": "StatefulPartitionedCall/model_1/category_encoding_355/bincount/Const_2", "shape": [0], "dtype": "float32"}, {"name": "StatefulPartitionedCall/model_1/category_encoding_356/bincount/maxlength", "shape": [], "dtype": "int32"}, {"name": "StatefulPartitionedCall/model_1/category_encoding_356/bincount/minlength", "shape": [], "dtype": "int32"}, {"name": "StatefulPartitionedCall/model_1/category_encoding_356/bincount/Const", "shape": [1], "dtype": "int32"}, {"name": "StatefulPartitionedCall/model_1/category_encoding_356/bincount/Greater/y", "shape": [], "dtype": "int32"}, {"name": "StatefulPartitionedCall/model_1/category_encoding_356/bincount/Const_1", "shape": [2], "dtype": "int32"}, {"name": "StatefulPartitionedCall/model_1/category_encoding_356/bincount/add/y", "shape": [], "dtype": "int32"}, {"name": "StatefulPartitionedCall/model_1/category_encoding_356/bincount/Const_2", "shape": [0], "dtype": "float32"}, {"name": "StatefulPartitionedCall/model_1/category_encoding_357/bincount/maxlength", "shape": [], "dtype": "int32"}, {"name": "StatefulPartitionedCall/model_1/category_encoding_357/bincount/minlength", "shape": [], "dtype": "int32"}, {"name": "StatefulPartitionedCall/model_1/category_encoding_357/bincount/Const", "shape": [1], "dtype": "int32"}, {"name": "StatefulPartitionedCall/model_1/category_encoding_357/bincount/Greater/y", "shape": [], "dtype": "int32"}, {"name": "StatefulPartitionedCall/model_1/category_encoding_357/bincount/Const_1", "shape": [2], "dtype": "int32"}, {"name": "StatefulPartitionedCall/model_1/category_encoding_357/bincount/add/y", "shape": [], "dtype": "int32"}, {"name": "StatefulPartitionedCall/model_1/category_encoding_357/bincount/Const_2", "shape": [0], "dtype": "float32"}, {"name": "StatefulPartitionedCall/model_1/category_encoding_358/bincount/maxlength", "shape": [], "dtype": "int32"}, {"name": "StatefulPartitionedCall/model_1/category_encoding_358/bincount/minlength", "shape": [], "dtype": "int32"}, {"name": "StatefulPartitionedCall/model_1/category_encoding_358/bincount/Const", "shape": [1], "dtype": "int32"}, {"name": "StatefulPartitionedCall/model_1/category_encoding_358/bincount/Greater/y", "shape": [], "dtype": "int32"}, {"name": "StatefulPartitionedCall/model_1/category_encoding_358/bincount/Const_1", "shape": [2], "dtype": "int32"}, {"name": "StatefulPartitionedCall/model_1/category_encoding_358/bincount/add/y", "shape": [], "dtype": "int32"}, {"name": "StatefulPartitionedCall/model_1/category_encoding_358/bincount/Const_2", "shape": [0], "dtype": "float32"}, {"name": "StatefulPartitionedCall/model_1/category_encoding_359/bincount/maxlength", "shape": [], "dtype": "int32"}, {"name": "StatefulPartitionedCall/model_1/category_encoding_359/bincount/minlength", "shape": [], "dtype": "int32"}, {"name": "StatefulPartitionedCall/model_1/category_encoding_359/bincount/Const", "shape": [1], "dtype": "int32"}, {"name": "StatefulPartitionedCall/model_1/category_encoding_359/bincount/Greater/y", "shape": [], "dtype": "int32"}, {"name": "StatefulPartitionedCall/model_1/category_encoding_359/bincount/Const_1", "shape": [2], "dtype": "int32"}, {"name": "StatefulPartitionedCall/model_1/category_encoding_359/bincount/add/y", "shape": [], "dtype": "int32"}, {"name": "StatefulPartitionedCall/model_1/category_encoding_359/bincount/Const_2", "shape": [0], "dtype": "float32"}, {"name": "StatefulPartitionedCall/model_1/category_encoding_360/bincount/maxlength", "shape": [], "dtype": "int32"}, {"name": "StatefulPartitionedCall/model_1/category_encoding_360/bincount/minlength", "shape": [], "dtype": "int32"}, {"name": "StatefulPartitionedCall/model_1/category_encoding_360/bincount/Const", "shape": [1], "dtype": "int32"}, {"name": "StatefulPartitionedCall/model_1/category_encoding_360/bincount/Greater/y", "shape": [], "dtype": "int32"}, {"name": "StatefulPartitionedCall/model_1/category_encoding_360/bincount/Const_1", "shape": [2], "dtype": "int32"}, {"name": "StatefulPartitionedCall/model_1/category_encoding_360/bincount/add/y", "shape": [], "dtype": "int32"}, {"name": "StatefulPartitionedCall/model_1/category_encoding_360/bincount/Const_2", "shape": [0], "dtype": "float32"}, {"name": "StatefulPartitionedCall/model_1/category_encoding_361/bincount/maxlength", "shape": [], "dtype": "int32"}, {"name": "StatefulPartitionedCall/model_1/category_encoding_361/bincount/minlength", "shape": [], "dtype": "int32"}, {"name": "StatefulPartitionedCall/model_1/category_encoding_361/bincount/Const", "shape": [1], "dtype": "int32"}, {"name": "StatefulPartitionedCall/model_1/category_encoding_361/bincount/Greater/y", "shape": [], "dtype": "int32"}, {"name": "StatefulPartitionedCall/model_1/category_encoding_361/bincount/Const_1", "shape": [2], "dtype": "int32"}, {"name": "StatefulPartitionedCall/model_1/category_encoding_361/bincount/add/y", "shape": [], "dtype": "int32"}, {"name": "StatefulPartitionedCall/model_1/category_encoding_361/bincount/Const_2", "shape": [0], "dtype": "float32"}, {"name": "StatefulPartitionedCall/model_1/category_encoding_362/bincount/maxlength", "shape": [], "dtype": "int32"}, {"name": "StatefulPartitionedCall/model_1/category_encoding_362/bincount/minlength", "shape": [], "dtype": "int32"}, {"name": "StatefulPartitionedCall/model_1/category_encoding_362/bincount/Const", "shape": [1], "dtype": "int32"}, {"name": "StatefulPartitionedCall/model_1/category_encoding_362/bincount/Greater/y", "shape": [], "dtype": "int32"}, {"name": "StatefulPartitionedCall/model_1/category_encoding_362/bincount/Const_1", "shape": [2], "dtype": "int32"}, {"name": "StatefulPartitionedCall/model_1/category_encoding_362/bincount/add/y", "shape": [], "dtype": "int32"}, {"name": "StatefulPartitionedCall/model_1/category_encoding_362/bincount/Const_2", "shape": [0], "dtype": "float32"}, {"name": "StatefulPartitionedCall/model_1/category_encoding_363/bincount/maxlength", "shape": [], "dtype": "int32"}, {"name": "StatefulPartitionedCall/model_1/category_encoding_363/bincount/minlength", "shape": [], "dtype": "int32"}, {"name": "StatefulPartitionedCall/model_1/category_encoding_363/bincount/Const", "shape": [1], "dtype": "int32"}, {"name": "StatefulPartitionedCall/model_1/category_encoding_363/bincount/Greater/y", "shape": [], "dtype": "int32"}, {"name": "StatefulPartitionedCall/model_1/category_encoding_363/bincount/Const_1", "shape": [2], "dtype": "int32"}, {"name": "StatefulPartitionedCall/model_1/category_encoding_363/bincount/add/y", "shape": [], "dtype": "int32"}, {"name": "StatefulPartitionedCall/model_1/category_encoding_363/bincount/Const_2", "shape": [0], "dtype": "float32"}, {"name": "StatefulPartitionedCall/model_1/category_encoding_364/bincount/maxlength", "shape": [], "dtype": "int32"}, {"name": "StatefulPartitionedCall/model_1/category_encoding_364/bincount/minlength", "shape": [], "dtype": "int32"}, {"name": "StatefulPartitionedCall/model_1/category_encoding_364/bincount/Const", "shape": [1], "dtype": "int32"}, {"name": "StatefulPartitionedCall/model_1/category_encoding_364/bincount/Greater/y", "shape": [], "dtype": "int32"}, {"name": "StatefulPartitionedCall/model_1/category_encoding_364/bincount/Const_1", "shape": [2], "dtype": "int32"}, {"name": "StatefulPartitionedCall/model_1/category_encoding_364/bincount/add/y", "shape": [], "dtype": "int32"}, {"name": "StatefulPartitionedCall/model_1/category_encoding_364/bincount/Const_2", "shape": [0], "dtype": "float32"}, {"name": "StatefulPartitionedCall/model_1/category_encoding_365/bincount/maxlength", "shape": [], "dtype": "int32"}, {"name": "StatefulPartitionedCall/model_1/category_encoding_365/bincount/minlength", "shape": [], "dtype": "int32"}, {"name": "StatefulPartitionedCall/model_1/category_encoding_365/bincount/Const", "shape": [1], "dtype": "int32"}, {"name": "StatefulPartitionedCall/model_1/category_encoding_365/bincount/Greater/y", "shape": [], "dtype": "int32"}, {"name": "StatefulPartitionedCall/model_1/category_encoding_365/bincount/Const_1", "shape": [2], "dtype": "int32"}, {"name": "StatefulPartitionedCall/model_1/category_encoding_365/bincount/add/y", "shape": [], "dtype": "int32"}, {"name": "StatefulPartitionedCall/model_1/category_encoding_365/bincount/Const_2", "shape": [0], "dtype": "float32"}, {"name": "StatefulPartitionedCall/model_1/category_encoding_366/bincount/maxlength", "shape": [], "dtype": "int32"}, {"name": "StatefulPartitionedCall/model_1/category_encoding_366/bincount/minlength", "shape": [], "dtype": "int32"}, {"name": "StatefulPartitionedCall/model_1/category_encoding_366/bincount/Const", "shape": [1], "dtype": "int32"}, {"name": "StatefulPartitionedCall/model_1/category_encoding_366/bincount/Greater/y", "shape": [], "dtype": "int32"}, {"name": "StatefulPartitionedCall/model_1/category_encoding_366/bincount/Const_1", "shape": [2], "dtype": "int32"}, {"name": "StatefulPartitionedCall/model_1/category_encoding_366/bincount/add/y", "shape": [], "dtype": "int32"}, {"name": "StatefulPartitionedCall/model_1/category_encoding_366/bincount/Const_2", "shape": [0], "dtype": "float32"}, {"name": "StatefulPartitionedCall/model_1/category_encoding_367/bincount/maxlength", "shape": [], "dtype": "int32"}, {"name": "StatefulPartitionedCall/model_1/category_encoding_367/bincount/minlength", "shape": [], "dtype": "int32"}, {"name": "StatefulPartitionedCall/model_1/category_encoding_367/bincount/Const", "shape": [1], "dtype": "int32"}, {"name": "StatefulPartitionedCall/model_1/category_encoding_367/bincount/Greater/y", "shape": [], "dtype": "int32"}, {"name": "StatefulPartitionedCall/model_1/category_encoding_367/bincount/Const_1", "shape": [2], "dtype": "int32"}, {"name": "StatefulPartitionedCall/model_1/category_encoding_367/bincount/add/y", "shape": [], "dtype": "int32"}, {"name": "StatefulPartitionedCall/model_1/category_encoding_367/bincount/Const_2", "shape": [0], "dtype": "float32"}, {"name": "StatefulPartitionedCall/model_1/category_encoding_368/bincount/maxlength", "shape": [], "dtype": "int32"}, {"name": "StatefulPartitionedCall/model_1/category_encoding_368/bincount/minlength", "shape": [], "dtype": "int32"}, {"name": "StatefulPartitionedCall/model_1/category_encoding_368/bincount/Const", "shape": [1], "dtype": "int32"}, {"name": "StatefulPartitionedCall/model_1/category_encoding_368/bincount/Greater/y", "shape": [], "dtype": "int32"}, {"name": "StatefulPartitionedCall/model_1/category_encoding_368/bincount/Const_1", "shape": [2], "dtype": "int32"}, {"name": "StatefulPartitionedCall/model_1/category_encoding_368/bincount/add/y", "shape": [], "dtype": "int32"}, {"name": "StatefulPartitionedCall/model_1/category_encoding_368/bincount/Const_2", "shape": [0], "dtype": "float32"}, {"name": "StatefulPartitionedCall/model_1/category_encoding_369/bincount/maxlength", "shape": [], "dtype": "int32"}, {"name": "StatefulPartitionedCall/model_1/category_encoding_369/bincount/minlength", "shape": [], "dtype": "int32"}, {"name": "StatefulPartitionedCall/model_1/category_encoding_369/bincount/Const", "shape": [1], "dtype": "int32"}, {"name": "StatefulPartitionedCall/model_1/category_encoding_369/bincount/Greater/y", "shape": [], "dtype": "int32"}, {"name": "StatefulPartitionedCall/model_1/category_encoding_369/bincount/Const_1", "shape": [2], "dtype": "int32"}, {"name": "StatefulPartitionedCall/model_1/category_encoding_369/bincount/add/y", "shape": [], "dtype": "int32"}, {"name": "StatefulPartitionedCall/model_1/category_encoding_369/bincount/Const_2", "shape": [0], "dtype": "float32"}, {"name": "StatefulPartitionedCall/model_1/category_encoding_370/bincount/maxlength", "shape": [], "dtype": "int32"}, {"name": "StatefulPartitionedCall/model_1/category_encoding_370/bincount/minlength", "shape": [], "dtype": "int32"}, {"name": "StatefulPartitionedCall/model_1/category_encoding_370/bincount/Const", "shape": [1], "dtype": "int32"}, {"name": "StatefulPartitionedCall/model_1/category_encoding_370/bincount/Greater/y", "shape": [], "dtype": "int32"}, {"name": "StatefulPartitionedCall/model_1/category_encoding_370/bincount/Const_1", "shape": [2], "dtype": "int32"}, {"name": "StatefulPartitionedCall/model_1/category_encoding_370/bincount/add/y", "shape": [], "dtype": "int32"}, {"name": "StatefulPartitionedCall/model_1/category_encoding_370/bincount/Const_2", "shape": [0], "dtype": "float32"}, {"name": "StatefulPartitionedCall/model_1/category_encoding_371/bincount/maxlength", "shape": [], "dtype": "int32"}, {"name": "StatefulPartitionedCall/model_1/category_encoding_371/bincount/minlength", "shape": [], "dtype": "int32"}, {"name": "StatefulPartitionedCall/model_1/category_encoding_371/bincount/Const", "shape": [1], "dtype": "int32"}, {"name": "StatefulPartitionedCall/model_1/category_encoding_371/bincount/Greater/y", "shape": [], "dtype": "int32"}, {"name": "StatefulPartitionedCall/model_1/category_encoding_371/bincount/Const_1", "shape": [2], "dtype": "int32"}, {"name": "StatefulPartitionedCall/model_1/category_encoding_371/bincount/add/y", "shape": [], "dtype": "int32"}, {"name": "StatefulPartitionedCall/model_1/category_encoding_371/bincount/Const_2", "shape": [0], "dtype": "float32"}, {"name": "StatefulPartitionedCall/model_1/category_encoding_372/bincount/maxlength", "shape": [], "dtype": "int32"}, {"name": "StatefulPartitionedCall/model_1/category_encoding_372/bincount/minlength", "shape": [], "dtype": "int32"}, {"name": "StatefulPartitionedCall/model_1/category_encoding_372/bincount/Const", "shape": [1], "dtype": "int32"}, {"name": "StatefulPartitionedCall/model_1/category_encoding_372/bincount/Greater/y", "shape": [], "dtype": "int32"}, {"name": "StatefulPartitionedCall/model_1/category_encoding_372/bincount/Const_1", "shape": [2], "dtype": "int32"}, {"name": "StatefulPartitionedCall/model_1/category_encoding_372/bincount/add/y", "shape": [], "dtype": "int32"}, {"name": "StatefulPartitionedCall/model_1/category_encoding_372/bincount/Const_2", "shape": [0], "dtype": "float32"}, {"name": "StatefulPartitionedCall/model_1/category_encoding_373/bincount/maxlength", "shape": [], "dtype": "int32"}, {"name": "StatefulPartitionedCall/model_1/category_encoding_373/bincount/minlength", "shape": [], "dtype": "int32"}, {"name": "StatefulPartitionedCall/model_1/category_encoding_373/bincount/Const", "shape": [1], "dtype": "int32"}, {"name": "StatefulPartitionedCall/model_1/category_encoding_373/bincount/Greater/y", "shape": [], "dtype": "int32"}, {"name": "StatefulPartitionedCall/model_1/category_encoding_373/bincount/Const_1", "shape": [2], "dtype": "int32"}, {"name": "StatefulPartitionedCall/model_1/category_encoding_373/bincount/add/y", "shape": [], "dtype": "int32"}, {"name": "StatefulPartitionedCall/model_1/category_encoding_373/bincount/Const_2", "shape": [0], "dtype": "float32"}, {"name": "StatefulPartitionedCall/model_1/category_encoding_374/bincount/maxlength", "shape": [], "dtype": "int32"}, {"name": "StatefulPartitionedCall/model_1/category_encoding_374/bincount/minlength", "shape": [], "dtype": "int32"}, {"name": "StatefulPartitionedCall/model_1/category_encoding_374/bincount/Const", "shape": [1], "dtype": "int32"}, {"name": "StatefulPartitionedCall/model_1/category_encoding_374/bincount/Greater/y", "shape": [], "dtype": "int32"}, {"name": "StatefulPartitionedCall/model_1/category_encoding_374/bincount/Const_1", "shape": [2], "dtype": "int32"}, {"name": "StatefulPartitionedCall/model_1/category_encoding_374/bincount/add/y", "shape": [], "dtype": "int32"}, {"name": "StatefulPartitionedCall/model_1/category_encoding_374/bincount/Const_2", "shape": [0], "dtype": "float32"}, {"name": "StatefulPartitionedCall/model_1/category_encoding_375/bincount/maxlength", "shape": [], "dtype": "int32"}, {"name": "StatefulPartitionedCall/model_1/category_encoding_375/bincount/minlength", "shape": [], "dtype": "int32"}, {"name": "StatefulPartitionedCall/model_1/category_encoding_375/bincount/Const", "shape": [1], "dtype": "int32"}, {"name": "StatefulPartitionedCall/model_1/category_encoding_375/bincount/Greater/y", "shape": [], "dtype": "int32"}, {"name": "StatefulPartitionedCall/model_1/category_encoding_375/bincount/Const_1", "shape": [2], "dtype": "int32"}, {"name": "StatefulPartitionedCall/model_1/category_encoding_375/bincount/add/y", "shape": [], "dtype": "int32"}, {"name": "StatefulPartitionedCall/model_1/category_encoding_375/bincount/Const_2", "shape": [0], "dtype": "float32"}, {"name": "StatefulPartitionedCall/model_1/category_encoding_376/bincount/maxlength", "shape": [], "dtype": "int32"}, {"name": "StatefulPartitionedCall/model_1/category_encoding_376/bincount/minlength", "shape": [], "dtype": "int32"}, {"name": "StatefulPartitionedCall/model_1/category_encoding_376/bincount/Const", "shape": [1], "dtype": "int32"}, {"name": "StatefulPartitionedCall/model_1/category_encoding_376/bincount/Greater/y", "shape": [], "dtype": "int32"}, {"name": "StatefulPartitionedCall/model_1/category_encoding_376/bincount/Const_1", "shape": [2], "dtype": "int32"}, {"name": "StatefulPartitionedCall/model_1/category_encoding_376/bincount/add/y", "shape": [], "dtype": "int32"}, {"name": "StatefulPartitionedCall/model_1/category_encoding_376/bincount/Const_2", "shape": [0], "dtype": "float32"}, {"name": "StatefulPartitionedCall/model_1/category_encoding_377/bincount/maxlength", "shape": [], "dtype": "int32"}, {"name": "StatefulPartitionedCall/model_1/category_encoding_377/bincount/minlength", "shape": [], "dtype": "int32"}, {"name": "StatefulPartitionedCall/model_1/category_encoding_377/bincount/Const", "shape": [1], "dtype": "int32"}, {"name": "StatefulPartitionedCall/model_1/category_encoding_377/bincount/Greater/y", "shape": [], "dtype": "int32"}, {"name": "StatefulPartitionedCall/model_1/category_encoding_377/bincount/Const_1", "shape": [2], "dtype": "int32"}, {"name": "StatefulPartitionedCall/model_1/category_encoding_377/bincount/add/y", "shape": [], "dtype": "int32"}, {"name": "StatefulPartitionedCall/model_1/category_encoding_377/bincount/Const_2", "shape": [0], "dtype": "float32"}, {"name": "StatefulPartitionedCall/model_1/category_encoding_378/bincount/maxlength", "shape": [], "dtype": "int32"}, {"name": "StatefulPartitionedCall/model_1/category_encoding_378/bincount/minlength", "shape": [], "dtype": "int32"}, {"name": "StatefulPartitionedCall/model_1/category_encoding_378/bincount/Const", "shape": [1], "dtype": "int32"}, {"name": "StatefulPartitionedCall/model_1/category_encoding_378/bincount/Greater/y", "shape": [], "dtype": "int32"}, {"name": "StatefulPartitionedCall/model_1/category_encoding_378/bincount/Const_1", "shape": [2], "dtype": "int32"}, {"name": "StatefulPartitionedCall/model_1/category_encoding_378/bincount/add/y", "shape": [], "dtype": "int32"}, {"name": "StatefulPartitionedCall/model_1/category_encoding_378/bincount/Const_2", "shape": [0], "dtype": "float32"}, {"name": "StatefulPartitionedCall/model_1/category_encoding_379/bincount/maxlength", "shape": [], "dtype": "int32"}, {"name": "StatefulPartitionedCall/model_1/category_encoding_379/bincount/minlength", "shape": [], "dtype": "int32"}, {"name": "StatefulPartitionedCall/model_1/category_encoding_379/bincount/Const", "shape": [1], "dtype": "int32"}, {"name": "StatefulPartitionedCall/model_1/category_encoding_379/bincount/Greater/y", "shape": [], "dtype": "int32"}, {"name": "StatefulPartitionedCall/model_1/category_encoding_379/bincount/Const_1", "shape": [2], "dtype": "int32"}, {"name": "StatefulPartitionedCall/model_1/category_encoding_379/bincount/add/y", "shape": [], "dtype": "int32"}, {"name": "StatefulPartitionedCall/model_1/category_encoding_379/bincount/Const_2", "shape": [0], "dtype": "float32"}, {"name": "StatefulPartitionedCall/model_1/category_encoding_380/bincount/maxlength", "shape": [], "dtype": "int32"}, {"name": "StatefulPartitionedCall/model_1/category_encoding_380/bincount/minlength", "shape": [], "dtype": "int32"}, {"name": "StatefulPartitionedCall/model_1/category_encoding_380/bincount/Const", "shape": [1], "dtype": "int32"}, {"name": "StatefulPartitionedCall/model_1/category_encoding_380/bincount/Greater/y", "shape": [], "dtype": "int32"}, {"name": "StatefulPartitionedCall/model_1/category_encoding_380/bincount/Const_1", "shape": [2], "dtype": "int32"}, {"name": "StatefulPartitionedCall/model_1/category_encoding_380/bincount/add/y", "shape": [], "dtype": "int32"}, {"name": "StatefulPartitionedCall/model_1/category_encoding_380/bincount/Const_2", "shape": [0], "dtype": "float32"}, {"name": "StatefulPartitionedCall/model_1/category_encoding_381/bincount/maxlength", "shape": [], "dtype": "int32"}, {"name": "StatefulPartitionedCall/model_1/category_encoding_381/bincount/minlength", "shape": [], "dtype": "int32"}, {"name": "StatefulPartitionedCall/model_1/category_encoding_381/bincount/Const", "shape": [1], "dtype": "int32"}, {"name": "StatefulPartitionedCall/model_1/category_encoding_381/bincount/Greater/y", "shape": [], "dtype": "int32"}, {"name": "StatefulPartitionedCall/model_1/category_encoding_381/bincount/Const_1", "shape": [2], "dtype": "int32"}, {"name": "StatefulPartitionedCall/model_1/category_encoding_381/bincount/add/y", "shape": [], "dtype": "int32"}, {"name": "StatefulPartitionedCall/model_1/category_encoding_381/bincount/Const_2", "shape": [0], "dtype": "float32"}, {"name": "StatefulPartitionedCall/model_1/category_encoding_382/bincount/maxlength", "shape": [], "dtype": "int32"}, {"name": "StatefulPartitionedCall/model_1/category_encoding_382/bincount/minlength", "shape": [], "dtype": "int32"}, {"name": "StatefulPartitionedCall/model_1/category_encoding_382/bincount/Const", "shape": [1], "dtype": "int32"}, {"name": "StatefulPartitionedCall/model_1/category_encoding_382/bincount/Greater/y", "shape": [], "dtype": "int32"}, {"name": "StatefulPartitionedCall/model_1/category_encoding_382/bincount/Const_1", "shape": [2], "dtype": "int32"}, {"name": "StatefulPartitionedCall/model_1/category_encoding_382/bincount/add/y", "shape": [], "dtype": "int32"}, {"name": "StatefulPartitionedCall/model_1/category_encoding_382/bincount/Const_2", "shape": [0], "dtype": "float32"}, {"name": "StatefulPartitionedCall/model_1/category_encoding_383/bincount/maxlength", "shape": [], "dtype": "int32"}, {"name": "StatefulPartitionedCall/model_1/category_encoding_383/bincount/minlength", "shape": [], "dtype": "int32"}, {"name": "StatefulPartitionedCall/model_1/category_encoding_383/bincount/Const", "shape": [1], "dtype": "int32"}, {"name": "StatefulPartitionedCall/model_1/category_encoding_383/bincount/Greater/y", "shape": [], "dtype": "int32"}, {"name": "StatefulPartitionedCall/model_1/category_encoding_383/bincount/Const_1", "shape": [2], "dtype": "int32"}, {"name": "StatefulPartitionedCall/model_1/category_encoding_383/bincount/add/y", "shape": [], "dtype": "int32"}, {"name": "StatefulPartitionedCall/model_1/category_encoding_383/bincount/Const_2", "shape": [0], "dtype": "float32"}, {"name": "StatefulPartitionedCall/model_1/category_encoding_384/bincount/maxlength", "shape": [], "dtype": "int32"}, {"name": "StatefulPartitionedCall/model_1/category_encoding_384/bincount/minlength", "shape": [], "dtype": "int32"}, {"name": "StatefulPartitionedCall/model_1/category_encoding_384/bincount/Const", "shape": [1], "dtype": "int32"}, {"name": "StatefulPartitionedCall/model_1/category_encoding_384/bincount/Greater/y", "shape": [], "dtype": "int32"}, {"name": "StatefulPartitionedCall/model_1/category_encoding_384/bincount/Const_1", "shape": [2], "dtype": "int32"}, {"name": "StatefulPartitionedCall/model_1/category_encoding_384/bincount/add/y", "shape": [], "dtype": "int32"}, {"name": "StatefulPartitionedCall/model_1/category_encoding_384/bincount/Const_2", "shape": [0], "dtype": "float32"}, {"name": "StatefulPartitionedCall/model_1/category_encoding_385/bincount/maxlength", "shape": [], "dtype": "int32"}, {"name": "StatefulPartitionedCall/model_1/category_encoding_385/bincount/minlength", "shape": [], "dtype": "int32"}, {"name": "StatefulPartitionedCall/model_1/category_encoding_385/bincount/Const", "shape": [1], "dtype": "int32"}, {"name": "StatefulPartitionedCall/model_1/category_encoding_385/bincount/Greater/y", "shape": [], "dtype": "int32"}, {"name": "StatefulPartitionedCall/model_1/category_encoding_385/bincount/Const_1", "shape": [2], "dtype": "int32"}, {"name": "StatefulPartitionedCall/model_1/category_encoding_385/bincount/add/y", "shape": [], "dtype": "int32"}, {"name": "StatefulPartitionedCall/model_1/category_encoding_385/bincount/Const_2", "shape": [0], "dtype": "float32"}]}]}